convolutional-neural-networks/cifar-cnn/model_cifar.pt (torch_old, 656638 bytes, 12 tensors)

conv1.weight f4 [16, 3, 3, 3]
00000000: 26ce 1fbc cda5 38be d862 34be 3ac4 a1be
00000010: 08b0 64bc 2b58 e9bd 0ab2 14be 40ee 98bd
00000020: 9fbd d3bd e230 6a3d dda5 043e 130c f33c
00000030: 2f99 2fbe 4415 1d3d 46c0 673e c5b9 423d
00000040: 36be 0e3e 4652 373d dc5d 883e c000 cf3e
00000050: 4134 763d a023 2b3e 1fe4 8b3e 52c3 c93e
00000060: b776 053e 80a8 9e3e 7ab9 043e 1a74 953e
00000070: 158a af3e 9cb0 c33e 03ff 1f3f acca 563f
00000080: fb01 403f 0939 a63e 246f a23e f56e 85bd
00000090: 147e 30be 445e 87be a4ed 7ebe a711 56be
000000a0: 21b8 17bf f12f f6be 2d39 c7be 3fb0 a7be
000000b0: 78b1 7ebe 5da9 6fbe 41f1 9cbd 4d31 06be
000000c0: 496a 07bf e24d babe d903 b7be 0002 283d
000000d0: e201 9f3d e45f be3e b3fa fc3e 0725 a63e
000000e0: 0f29 813e 26fd 013e d931 3bbe 4170 30bd
000000f0: d0d3 b3bd 7499 54be 6c05 783e 57be 76be
00000100: 9436 4abe f5e4 d7be 33e9 62be ec3d d4be
00000110: 62f1 6ebe fe7c 9dbe 7242 22be 7972 e43d
00000120: 16d9 b63e 0ce0 aebd 7167 9abe bd5b b73e
00000130: 1430 9ebe e3aa 9ebe 95fc d4bd 2c6d 8cbe
00000140: 0140 c0bd 6403 a8bd 23c4 493e 9f24 203b
00000150: 3278 d1bd b01a 9bbd c4fe 0a3d 01d3 56be
00000160: 5199 ddbd 7a2c 2abd fba5 8b3d da5d ae3e
00000170: f4be 703e 4f41 4dbc 8f43 163e 41ac bd3e
00000180: 38fa 4e3e 618f e43d 8df0 bd3e 83ef 87be
00000190: 85d5 ecbc 1364 5cbe d00a f8be c2c7 debd
000001a0: e396 58be b0c4 a4be e357 cbbe 8c73 c8be
000001b0: 0d25 dcbe e10a 0ebf 6e8d d3be 516d 19be
000001c0: b893 18bf 4aff 20bf 4848 18be cf41 f5be
000001d0: 256b 70be 028d 9d3d a4ae db3e 81ce f33d
000001e0: 67ef 8a3d 0dc1 d63d aa23 0c3e 5624 b8bc
000001f0: eae1 0fbe c051 9dbe a81e 543e 1d80 f33e
00000200: 5399 a63e d63e 033f 4879 4d3f 9b27 083f
00000210: f372 623e 4114 6d3e 7e6e 09bd c1a2 8d3e
00000220: 437a 0a3f ab29 703d a71a bdbc 5fae b73e
00000230: 1069 5c3e 0b3c c3be 9093 edbe a96e 9cbe
00000240: 4776 973e 354b ac3e 5d63 98bc 0140 2cbd
00000250: 6751 053e f704 7d3e 02df 0dbf 00f1 e5be
00000260: 43ec 11bf 41c1 b83e 6058 a23e a368 863e
00000270: b881 17bd 0542 c73e 7ee9 093f b021 04bf
00000280: 9c9c fdbe 2f8e 01bf b868 3ebf 01c9 6a3d
00000290: acb0 443f 9946 183e 1c79 40bf 44f8 bb3e
000002a0: 1ebe 413f e0f2 ec3e 1b8b 6abf dd79 0bbf
000002b0: 84de e4bc 935a 453f 50f0 b13e e77e 63bf
000002c0: 4fca 8b3e 3de6 4f3f e700 b13e 5ede 93bf
000002d0: 4783 25bf 8076 353e 8c34 903e 5fe9 e93d
000002e0: be1c 5bbf f600 0d3e e22c 733f 642e 083f
000002f0: e29f 27bf 4232 80be 9733 0d3e 8dd3 8d3e
00000300: 2e4c 1bbe 2c6e 97be 1fb1 083f 14cf 5fbe
00000310: 9d00 0dbf bf3d 983d bfc3 d9bd 1739 b63e
00000320: 9144 273f 314b 62be ded5 33be 847c 3e3f
00000330: 1d64 42be 3215 0bbf 4a24 b13e 93ba 45be
00000340: 4a7d 91bd 263f 843e 46a6 d6be d02a 86be
00000350: 8091 263f 9f57 e0bd 944f bbbe 07f3 8b3e
00000360: 88f2 a5be d533 1abf 6ee0 bebe c1a6 94be
00000370: 0562 42be 4dfa db3d 9889 f73e adf6 433f
00000380: 12fe 413f c462 e9be 553a 28bf f5bf fcbd
00000390: c212 cabe 0626 58bd 13d8 93bd 1cdd ac3e
000003a0: c104 d93e d351 b53e ccf5 893d 7086 31be
000003b0: 1951 d73b ed91 7cbe 9439 b23d 7372 613e
000003c0: 2db6 773e b544 203e 4969 9939 d15c 89be
000003d0: fd2e 02be 1bec 463e 04a7 ddbe b4f7 3ebf
000003e0: 2c6e bfbe d3e1 df3c f438 783d 6a68 21be
000003f0: ad84 febc 8c46 e53e 4c00 0b3f 09d4 6abd
-0.009753739 -0.18031998 -0.17615831 -0.3159502 -0.013957985 -0.1139377 -0.14521042 -0.074673176
-0.10338902 0.057175525 0.12953897 0.029668843 -0.17148279 0.03835036 0.2263194 0.047540445
0.13939747 0.044756196 0.2663411 0.4043026 0.060108427 0.16712809 0.2732248 0.3940683
0.13033567 0.3098793 0.12961379 0.2919014 0.34285036 0.3822068 0.6249849 0.83903
0.7500302 0.3246539 0.3172542 -0.06515304 -0.17235595 -0.26439106 -0.2489534 -0.20905171
-0.59265333 -0.4808345 -0.3891081 -0.32751653 -0.24872386 -0.2340445 -0.07663203 -0.13104744
-0.52896553 -0.36387545 -0.35745123 0.041017532 0.07764031 0.37182534 0.49410018 0.32450125
0.25226638 0.12694225 -0.18280734 -0.043075804 -0.087806344 -0.20761663 0.24220818 -0.24096046
-0.19747382 -0.42166868 -0.22159271 -0.41453493 -0.23334268 -0.30759424 -0.1584566 0.111546464
0.35712498 -0.08538827 -0.30157045 0.35812178 -0.30896056 -0.3098975 -0.10399739 -0.27427042
-0.09387208 -0.08203772 0.19703726 0.002443589 -0.102280036 -0.075734496 0.03393437 -0.20978929
-0.108202584 -0.041546322 0.06818768 0.34055978 0.23510343 -0.012527778 0.14674209 0.37045482
0.20212638 0.1116016 0.37097588 -0.2654992 -0.028910408 -0.2152255 -0.4844575 -0.108779445
-0.21151309 -0.3218131 -0.3971549 -0.39150655 -0.42997018 -0.5548535 -0.4131884 -0.14983107
-0.596004 -0.6288954 -0.14871323 -0.4790177 -0.23478372 0.07692911 0.42906678 0.11904622
0.067839436 0.1048604 0.1368548 -0.022478264 -0.14051023 -0.30726433 0.2071482 0.4755868
0.32538852 0.51267755 0.80263186 0.53185433 0.22114162 0.23152258 -0.03355264 0.27663234
0.54092807 0.058633488 -0.023083998 0.35875222 0.21524453 -0.38131747 -0.46401644 -0.30553177
0.29582426 0.33651128 -0.018602068 -0.042053226 0.13019334 0.24708925 -0.5541841 -0.4491043
-0.5700113 0.3608494 0.3170805 0.26251706 -0.036988944 0.38917556 0.53871906 -0.51613903
-0.49533546 -0.5060758 -0.7437854 0.0573206 0.7683208 0.14870681 -0.751848 0.3671285
0.7568072 0.4627905 -0.9161851 -0.54482824 -0.027938135 0.7709133 0.34753656 -0.8886551
0.27302787 0.8121069 0.34571 -1.1552236 -0.6465344 0.17720985 0.2816509 0.11421465
-0.8559073 0.13769898 0.9499036 0.53195786 -0.65478337 -0.25038344 0.13789211 0.27700463
-0.15165779 -0.29576242 0.53395265 -0.21856338 -0.5507906 0.07433652 -0.10633039 0.3559043
0.65339 -0.22098996 -0.17562053 0.74408746 -0.18983503 -0.54329216 0.34598 -0.19309454
-0.07103975 0.25829428 -0.41923732 -0.26204538 0.65065765 -0.109542124 -0.3658415 0.27333853
-0.324116 -0.6023534 -0.372806 -0.29033473 -0.18982704 0.107411005 0.48347163 0.7654827
0.75778306 -0.45583165 -0.6571401 -0.123413004 -0.39467436 -0.052770637 -0.07218947 0.33762443
0.4238644 0.3541399 0.06736335 -0.1733644 0.006570947 -0.24665041 0.087023884 0.22016315
0.24190588 0.1565121 0.00029260878 -0.26828626 -0.12713237 0.19426005 -0.43291485 -0.74596715
-0.37388742 0.027329361 0.06060119 -0.15762487 -0.031069124 0.44780385 0.5429733 -0.05733112

conv1.bias f4 [16]
00000000: 0943 b7be bde9 adbe 1364 bdbe 9afc 0bbd
00000010: 5ce1 0d3f 4776 fbbd ea00 55bd cd09 a63d
00000020: e96b adbd 6a46 a63e f94d c0bd 9548 cf3e
00000030: 6bec 81be 8ec6 80bd c73c f6bd 3a7f d4be
-0.3579333 -0.3396739 -0.36990413 -0.034176446 0.55421996 -0.12278419 -0.052002825 0.08107338
-0.08467848 0.32475597 -0.09389872 0.40485063 -0.25375685 -0.06287871 -0.12023311 -0.41503316

conv2.weight f4 [32, 16, 3, 3]
00000000: c90f dbbd 6393 2abd 0bdd 333d 94e4 a9bd
00000010: ee2a acbd eb09 64bc 72ed 2a3c 36c9 17be
00000020: 5b1e a4bd 0de2 ba3b 8db6 0a3d a6ec 0dbe
00000030: 702c f9bd 5cd9 c7bc 6308 2bbe 5959 d33c
00000040: d87d 2c3d eb2e b3bd e280 ad3b 3972 16bd
00000050: cc63 163e 7237 223c 056b 0fbe 5b23 773e
00000060: fc55 b93d 8a54 343d 7dac 773e 0a8a 113e
00000070: 3251 413c 976f 5b3e 668a a53d e41d 753c
00000080: b468 c83b bfc6 803d 0261 f6bc bdfd 1b3e
00000090: bdbd d8bd 977b 72be 1ed8 bebd 14bf 46be
000000a0: 0485 a4be b589 7ebe a1cc bdbd f4d7 debe
000000b0: ea41 b4be b97b 1b3d a546 a13b 7e67 a43c
000000c0: 805b e7bc 1ad2 cd39 6b51 2dbd ab32 213d
000000d0: 6637 933c e85a 413e 0cdc 4c3e 635f b9bc
000000e0: 3285 063e ee7d 503e 5981 4b3e fc02 74bb
000000f0: a746 023e 90de a53e f3df 8e3e 4527 893d
00000100: 3e69 503d 2c78 2dba befa 8a3d 77be a53d
00000110: c4f5 b6bd c9d3 283e 59e8 6c3b 4e06 9e3d
00000120: 0320 89bd aa81 1fbe 2963 69bd ccfa 16be
00000130: 4564 78be fe5c 44be 3fb6 93bd 276e 1abc
00000140: cc70 063d 3698 46be 150c 93be 59b0 98bd
00000150: a09d 21be 943c 90be bb82 21be 99ed 753c
00000160: 63e4 64be 09c7 62be 6ce7 4ebe a361 8cbe
00000170: 5241 c1bd a3c4 83be 2594 a8be 50ce 29be
00000180: ed49 3bbd 242b 30be 8290 98bc 2f9e 8cbc
00000190: 124f 0d3e 5c6a e0ba 7ef5 abbc da2d 413e
000001a0: 81d1 cabd 01da c33d 4273 503e f67c b6bd
000001b0: 69fe 303d 2841 833d 2024 013c bb63 a63d
000001c0: 852f 7e3d fe9c 7abd fb7a 683d 2952 f53b
000001d0: f634 bcbc 3cb3 a6bd 1ca7 6fbd 7ae9 7fbe
000001e0: 177c 38bd 92a1 923c a498 a3bd c568 cf3d
000001f0: 4d35 953d b82c 633d 8903 9fbd 23e1 8bbd
00000200: 79e0 21bc 1b81 e9bd 4646 3cbe 2f9d 40bd
00000210: 3ec9 b8bd 3db8 3fbe 96a7 283d 49b4 d1bd
00000220: 6a2d 41bd 1a12 983d a043 5cbd b248 b7bd
00000230: e162 f5bc 9d27 08bd 3096 863d 5f36 c63d
00000240: 5f7c 8dbd fcb4 4bbd b903 be3c 9d72 003e
00000250: a0b1 dbbc 2e3e ce3d 5cca 1fbc 13bb aa3d
00000260: 59a9 c03b d92b a43d 995b b13c 04a5 48bd
00000270: f1fa 3d3e 5cc6 af3e b07b b33d 97f5 0d3c
00000280: 316e 453e 373d 103e 1436 fd3a b239 df3d
00000290: 207e a73c 6440 80bd 40bc 763e 8c3c 583e
000002a0: d288 44be bf4c d43d 2630 113d 5d5c 4bbe
000002b0: 4ec0 8b3c e308 1f3c 939b 0dbe dca1 4cbd
000002c0: 9099 e33d 01b7 b1bd 029d 40be 1260 4fbd
000002d0: cd52 84bd 53ad 7d3e 621c a53e 3915 52be
000002e0: e076 a4bd 6162 393e f2fd b0bd b8f7 40be
000002f0: 1628 80bd 04e2 d33c e791 30be 9340 03be
00000300: 1639 a43d 5447 24be d5a1 03be 53fb 3c3e
00000310: 9694 503c 5551 dabc 3ee7 a83e 7121 a43d
00000320: b901 2abe f923 f83d 6537 763e 6905 cebd
00000330: 69e6 a33d d76d 303e 6ec7 0a3e 8574 dabd
00000340: 310a 9f3a d9c4 633e 9aae 82bd afa4 80be
00000350: 9e46 3c3d d328 49bd 434a 58be f784 aabc
00000360: b0ec b83d d08c afbc b338 94bd 4c1e 1bbc
00000370: 4741 5b3e 26f0 433e 2398 22be b789 253d
00000380: e6a4 693e c6cd 6fbd 7344 963d 1a0d 8b3e
00000390: 2361 0cbe e88b 8fbc 7705 1d3e 4ffc 54bd
000003a0: 7f44 d2bd 86e5 27bd 0382 e2bd c38c 22be
000003b0: 4dd5 e0bd d808 efbd 1267 99be ca39 86be
000003c0: c1f5 133e 797d 943b 47c0 42be 71a4 19bd
000003d0: f1fb bdbe c7ba 96be b631 413e 783a d3bd
000003e0: 9b42 22be 7486 663b 5559 c2bd 409c c23c
000003f0: 64de bfbc 5f8e 46be 1eff 7dbd 7279 893e
-0.1069637 -0.041644465 0.043911975 -0.08295551 -0.08406626 -0.01391838 0.010432588 -0.1482285
-0.08013602 0.005703217 0.0338655 -0.13859805 -0.12166679 -0.024395637 -0.16702418 0.02579944
0.0421122 -0.08749183 0.005294905 -0.036730025 0.14686507 0.0099009145 -0.14005668 0.24134581
0.09049603 0.044025935 0.24186893 0.14212814 0.011799144 0.21429287 0.08083038 0.01496074
0.006115997 0.06287908 -0.030075554 0.15233512 -0.10583065 -0.23679958 -0.09318565 -0.19408828
-0.32132733 -0.24857219 -0.092675455 -0.43524134 -0.35206538 0.037959788 0.0049217516 0.02006888
-0.028241873 0.00039257185 -0.042313974 0.03935496 0.017970752 0.18882334 0.20005816 -0.022628492
0.13136747 0.20360538 0.19873561 -0.0037233224 0.12722264 0.32396364 0.27905235 0.06696943
0.050881617 -0.0006617333 0.067861065 0.08092969 -0.08933595 0.1648704 0.0036149232 0.07716046
-0.06695559 -0.15576807 -0.056979332 -0.14744109 -0.24257 -0.19176099 -0.07212495 -0.009425676
0.032822415 -0.19394001 -0.28720155 -0.07455511 -0.15782785 -0.28171217 -0.15772526 0.015010261
-0.22352748 -0.22146238 -0.20205468 -0.2741824 -0.09436287 -0.2573596 -0.32925525 -0.16582608
-0.045724798 -0.17203957 -0.018623594 -0.017165272 0.13799694 -0.0017121541 -0.020991083 0.18865147
-0.09903241 0.09563065 0.20356467 -0.08910553 0.043211374 0.06408912 0.007882148 0.08124491
0.062057037 -0.061184876 0.05675791 0.007486601 -0.022974472 -0.08139655 -0.058508977 -0.24991408
-0.045040216 0.017899308 -0.07988098 0.10127405 0.07285557 0.05546257 -0.07764346 -0.06830051
-0.009880179 -0.11401578 -0.18386182 -0.047024902 -0.09022759 -0.18722625 0.041175447 -0.10239465
-0.04716245 0.074253276 -0.05377543 -0.089494124 -0.029954376 -0.033240903 0.06571615 0.09678339
-0.069084875 -0.049733147 0.023195134 0.12543721 -0.026818097 0.100704536 -0.009752836 0.08336463
0.005879563 0.08016176 0.021650122 -0.048985496 0.18552758 0.34331024 0.08763826 0.00866451
0.19280316 0.14085852 0.0019318485 0.108996764 0.020445883 -0.062622815 0.24095249 0.21116847
-0.19192818 0.10366201 0.03544631 -0.19859453 0.017059471 0.009706709 -0.13828878 -0.04995905
0.11113274 -0.08677483 -0.18809894 -0.05062873 -0.064611055 0.24773149 0.32248217 -0.20515908
-0.08030486 0.18103935 -0.08642186 -0.18844497 -0.06257646 0.025864609 -0.17243157 -0.12817602
0.08018701 -0.16042835 -0.12854703 0.18455248 0.012730738 -0.02665011 0.32988924 0.08014191
-0.1660222 0.12116236 0.24044569 -0.10059626 0.080029316 0.172294 0.13552639 -0.106667556
0.0012133775 0.2224306 -0.06380959 -0.25125644 0.045965783 -0.0491112 -0.21122079 -0.020815356
0.090295196 -0.02142945 -0.07237377 -0.009467673 0.2141162 0.19134578 -0.15878348 0.04041454
0.2281681 -0.05854585 0.073372744 0.27158433 -0.1370893 -0.017522767 0.15334116 -0.051998433
-0.10266971 -0.040990375 -0.11059954 -0.15874009 -0.10978184 -0.11671609 -0.2996145 -0.26215965
0.14449216 0.004531559 -0.1901866 -0.03751034 -0.3710628 -0.29439375 0.1886662 -0.103138864
-0.1584572 0.0035175355 -0.09489695 0.023756146 -0.023421474 -0.19390248 -0.062010877 0.26850468

conv2.bias f4 [32]
00000000: 0b0a fe3e 7711 d9be 7a69 063f 6c5c 283e
00000010: f6be fcbe 4134 bb3e 2545 f53e d6dc 133f
00000020: 6f12 41be 5c34 da3e 1f86 643b de14 60bb
00000030: 2e7e 073e f9df 2ebf 8130 c5be 6215 b1be
00000040: 9fda 7ebe f888 843d 8253 d53e a790 21be
00000050: 49a5 76be c335 923e f135 08bf 9e53 0b3e
00000060: 3656 8ebd 60d3 37be 32a2 9bbd 3471 1c3f
00000070: 21b6 0abd e15e 7ebe 45df 893f c36d 6d3d
0.49617037 -0.42396137 0.52504694 0.16441506 -0.49364442 0.36563304 0.47904316 0.57758844
-0.18854688 0.42618072 0.0034869981 -0.0034192125 0.13231727 -0.68310505 -0.38513568 -0.34586626
-0.24888085 0.06471437 0.41665274 -0.15777837 -0.24086489 0.28556642 -0.5320731 0.13606116
-0.06950037 -0.17951727 -0.07599296 0.61110234 -0.033865098 -0.24840881 1.0771261 0.057966005

conv3.weight f4 [64, 32, 3, 3]
00000000: 8f78 7b3d 5ca6 b63d 3279 5c3d 70c1 6bbd
00000010: b246 4fbd 90ad 093d ee4e ec3c c3af 42bd
00000020: 9401 b63d 2487 393e 4624 adba f2b8 d43d
00000030: 07e3 533d 1dcf 433d 024f 4dbc d024 8ebb
00000040: 2a68 a53d 244b 73bc 5fb1 8fbd 2363 933d
00000050: ba17 583d a2c6 82bd 17fd 93bd fe55 513d
00000060: a134 f7bb 4fce 80ba 34fc 23bd 0bc2 1f3e
00000070: a81a 6d3d 46ee a13d 625a 363c 83f9 663d
00000080: ece0 a13c f7e4 4bbc 11a7 8b3d 1c5f 1c3d
00000090: b5f3 1e3d 4a6b 653c 8779 df3c 906e 7a3d
000000a0: 7f43 b03c 4755 9f3d 7bd9 a8bc b155 0b3e
000000b0: 3ed3 e0bc cad4 22be 95bf c7bd 0722 e239
000000c0: 4d12 05be 99bd a9bd 2955 c43c 7cc6 8abd
000000d0: 8224 31bd 930e 8f3c 8c9b e93c d534 41bc
000000e0: c631 993d 9d22 f4bc 27a9 fdbd f9f6 003e
000000f0: c752 953b ba8e c7bd 745f 733c a86a 9d3d
00000100: 3f41 bc3d 6309 e13c 4d3d 53bc d796 d0bc
00000110: fd5f 5fbd 5fb0 85bd 12d6 c43d ae65 ba3d
00000120: 3d24 8d3d 5f86 99bd 954d b53d 2a45 98bd
00000130: 124c 32bd 4204 afbd e092 2ebe 52e2 45be
00000140: 68fd 06be a4dd 00be 42be 62bd 69e6 8c3c
00000150: 2ab1 32be ae87 92bd add8 42bd 476d 19bd
00000160: 6072 10bd b2d1 1b3d 055b c5bc 7319 3f3d
00000170: 1de7 3e3c e85c a8bd 2ab6 09bd 81c8 87bd
00000180: a209 c9bd 1108 aebd 074e 90bc 9d38 a4bb
00000190: 51ca 4abd 9028 1fbd 78e9 1b3c 316c c93c
000001a0: 4bd8 a0bc d08c 873d 23a5 b5bd 02ac 7bbd
000001b0: 9f40 3ebd da45 0cbd 0a8d adbd e9ab 8fbd
000001c0: 1e14 70bd f876 69bd 33eb d0bb 535c 13be
000001d0: 3595 a53c 2e5c 173d 9535 883d 8cdb fdbc
000001e0: b0ad febd bfe0 c3bd d321 21bd 9334 3bbd
000001f0: dd12 c0b8 20b3 6a3c e404 49bd 909f 21bd
00000200: dd87 533d 563a 9ebc e3f7 18bc e010 5dbb
00000210: 4770 12bb a652 893b 676d 243d 50a8 a4bd
00000220: fa3d efbd b90c e53d 2985 27be c264 51be
00000230: 678b 5ebd 8415 12bd 1d5d 69bd 591a a33d
00000240: 58b8 c93d 1615 0f3e 9933 06bd 3f32 a3bd
00000250: 39e7 0c3e 18eb a7bb f8de c9bd f994 1c3e
00000260: 57d7 493e 113d 04be 3624 1dbe dbed 0fbe
00000270: 9c9a a5bd f6aa 44bd 7462 c0bd b159 463e
00000280: a28b 93ba 9e5d 63bd 4e2f 06be 9784 babd
00000290: 8c25 77bc 09c2 99bd dc4d 0bbe 8136 83bc
000002a0: 6ab7 31be cdfe 1cbe dd91 b0bd fa88 9bbd
000002b0: 1df1 7cbd e630 c73d f776 0bbe 2cb8 03be
000002c0: 55da 36bd e968 643d 94ea 9abc 77af a13c
000002d0: 0007 3c3d 8656 f63c 169b d83c 52f8 ba3d
000002e0: 8f89 253e 61f5 13bc ff33 a8bd 7931 1d3e
000002f0: 0d9b eb3d d2f4 c4bc 6d93 e2bd ee19 4a3d
00000300: 14fd a03d d1ac 2dbd 5521 7d3d 00e7 223e
00000310: 500c c63c f3e0 43be 26a0 aa3b 8072 92bc
00000320: f8e7 db3c fe3f 823d b7b5 8dbc 52b8 ecbc
00000330: 4729 bf3c 08b8 de3d ed74 adbd 0f5f d9bd
00000340: 4248 5ebd be4c 503d d54f a53d 88d1 60bd
00000350: 2a13 03bd b567 3f3e b972 703e f55f 903c
00000360: b8ac 99bd 9f30 e73c 48da d33c 00a7 473d
00000370: 07c2 d43c a150 d83d 42f2 1ebc f7ac fcbc
00000380: 21fc a5bd 1c2e a5bd 0642 a9bd 0474 7f3b
00000390: 13a2 d6bd 9943 32be 3428 04be 0a5e 803d
000003a0: fa3e e83d 27a8 1aba fef8 18be e2c2 11be
000003b0: 8671 9cbc 4e18 c3bb 0bd2 8cbd a5ca 78bc
000003c0: 5f99 d43b 1c41 f7bd 7e24 d43d 46a5 06be
000003d0: f856 d8bd 2bba fb3c dbae f93c 66a2 3abd
000003e0: 79a6 a5bd d47e 243e bc7b edbc 69ff acbd
000003f0: ecb1 16bd 26c2 4b3d 6925 6d3d 1d51 60bc
0.06139427 0.08918449 0.05382652 -0.057557523 -0.05060453 0.033612788 0.02884623 -0.0475309
0.0888702 0.18117958 -0.0013209663 0.10386838 0.051730182 0.04780494 -0.012531044 -0.0043378845
0.08076508 -0.014849458 -0.07016253 0.07196643 0.052757002 -0.063855425 -0.072260074 0.0511074
-0.0075441157 -0.000982711 -0.04003544 0.15601365 0.05788675 0.07906775 0.011129947 0.056390297
0.019760571 -0.012444726 0.06818975 0.03817664 0.038806636 0.0140026305 0.027279628 0.061140597
0.02151656 0.07779937 -0.020611515 0.13606907 -0.027444478 -0.15901485 -0.09753338 0.0004313143
-0.12995262 -0.08288116 0.023966389 -0.06776139 -0.043247707 0.017463004 0.028516553 -0.011792381
0.07480197 -0.029801661 -0.12385779 0.12594213 0.004556987 -0.0974402 0.014854301 0.07686359
0.09192132 0.027470296 -0.012893033 -0.025462551 -0.0545349 -0.06527781 0.09611143 0.09101425
0.068916775 -0.074963324 0.08852688 -0.07435067 -0.043529578 -0.08545734 -0.17048216 -0.19324616
-0.13182604 -0.12584549 -0.055357225 0.017199712 -0.17450395 -0.07154785 -0.04756992 -0.03745773
-0.035265326 0.038041778 -0.024091253 0.04665513 0.011651781 -0.082208455 -0.03362099 -0.0663004
-0.098162904 -0.08497632 -0.017615331 -0.0050116316 -0.04950935 -0.038857043 0.0095161125 0.024587722
-0.019634387 0.06618655 -0.08869388 -0.061443336 -0.046448346 -0.034246303 -0.08474167 -0.07015211
-0.058612935 -0.056998223 -0.006375694 -0.14390688 0.020212749 0.036953144 0.06650845 -0.030988477
-0.12435472 -0.09564351 -0.039338898 -0.045704436 -9.158787e-05 0.014324933 -0.04907693 -0.03945881
0.05164324 -0.019314926 -0.009336445 -0.0033731982 -0.0022344755 0.0041907607 0.040143397 -0.080399156
-0.11681743 0.11184067 -0.1635939 -0.20448592 -0.054332163 -0.03566505 -0.056973565 0.0796401
0.09849614 0.13972887 -0.03276405 -0.07968568 0.1376008 -0.005124461 -0.09856981 0.15291204
0.19711052 -0.1291392 -0.15345845 -0.14055578 -0.0808613 -0.048014604 -0.093937784 0.19370152
-0.0011256824 -0.055509202 -0.13103983 -0.09107321 -0.0150846355 -0.075077124 -0.1360392 -0.0160172
-0.17355123 -0.15331574 -0.08621571 -0.075944856 -0.06175338 0.097261235 -0.136196 -0.12863225
-0.04464181 0.055764113 -0.018910684 0.019736988 0.045905113 0.030070554 0.026441138 0.091293946
0.16165756 -0.009030671 -0.082130425 0.15350904 0.11504183 -0.02404252 -0.110632755 0.049341135
0.07860771 -0.04240114 0.061799366 0.15908432 0.024175793 -0.1912878 0.0052070795 -0.017876863
0.02684401 0.06359862 -0.017298562 -0.028896485 0.023335112 0.10874945 -0.084695674 -0.10613834
-0.05426813 0.050854437 0.080718674 -0.054887325 -0.0320007 0.18691905 0.23481263 0.01762388
-0.075036466 0.028221427 0.02586092 0.048743248 0.025971426 0.10562254 -0.009701313 -0.030844195
-0.081047304 -0.08065435 -0.08264546 0.0038979063 -0.10480132 -0.17408599 -0.12905961 0.062679365
0.11340137 -0.00058996904 -0.14938733 -0.14234498 -0.019097101 -0.005953825 -0.06876 -0.015185033
0.00648801 -0.120729655 0.10358523 -0.13148984 -0.10563463 0.03072842 0.030478885 -0.04556503
-0.08088393 0.16064006 -0.028989665 -0.08447153 -0.036790773 0.0497457 0.057897005 -0.013691214

conv3.bias f4 [64]
00000000: 6451 6ebe 4aff 8e3e f01a 8dbc 87fe cfbe
00000010: e08f bf3e 5632 383e 8c58 7bbe 6a49 c1bd
00000020: 9884 89be e5d8 59be 5cf0 403e 7397 403d
00000030: f0fe a4bc 3385 50bd 73c4 f23d ee02 f3bc
00000040: 5240 653e ea1f 753d b7b0 8dbe 43d0 ddbc
00000050: f618 323e d38c 9a3e d61e de3e 7fe6 58be
00000060: 9dec 2fbe a081 ba3e ab3e 77bd b77f 73be
00000070: 5d79 fa3d 0a6d 82be f3a1 96be 2f46 86be
00000080: 1933 4d3d d612 843d 0eb1 8d3d f5a9 a53d
00000090: 8a7a 2d3e b5f1 8dbc 448c 443d cdf9 65bd
000000a0: e271 cdbd 9992 30bd b2ad 69be 8718 4cbd
000000b0: 4018 da3e 59ae 1b3e c855 cebd 8481 7cbe
000000c0: f296 bdbd b4c8 27be 8f76 e03b a8c8 81be
000000d0: 01a8 233e 5b5d c73b d85e cebd 9b67 a83e
000000e0: 9658 0dbe 5e48 a23c 0bea f53d fffe fdbd
000000f0: 585a 1d3f d09a 203e edb4 13be e4de 36be
-0.23273236 0.27929145 -0.017224759 -0.40623876 0.37414455 0.17987952 -0.24545497 -0.09437831
-0.26858974 -0.21274145 0.1884169 0.047019433 -0.020141095 -0.05090828 0.11853876 -0.029664483
0.22387818 0.05984489 -0.27673885 -0.027076846 0.17392334 0.30185565 0.433829 -0.21181677
-0.17180105 0.3642702 -0.0603625 -0.23779188 0.122301795 -0.25473815 -0.29420432 -0.2622542
0.05009756 0.06448905 0.06918536 0.08089057 0.16941276 -0.017327169 0.04798533 -0.05614643
-0.10031487 -0.043108556 -0.22820166 -0.04982808 0.42596626 0.15203227 -0.10074955 -0.24658781
-0.09257306 -0.16385156 0.006850071 -0.253484 0.15982057 0.006084127 -0.10076684 0.32891545
-0.13803324 0.019809898 0.12007531 -0.12402152 0.6146598 0.15684056 -0.14424486 -0.17858464

fc1.weight f4 [128, 1024]
00000000: 8314 1abc 2727 19bd 32ee 96bc cbbe 45bd
00000010: e0f0 67bc 62d9 c63d 77bf 29bd 00a1 24bc
00000020: 563a db3b bd67 00bc 35c8 6bbd 999d 11bd
00000030: 3f08 c6bb 9b31 e4bb 14b4 d03c d64a 59bb
00000040: 85bc 9bba 337a 05bd 4caa c1bc e9ef b7bc
00000050: 79ed 7ebc e7fb 85bd 4a75 55ba 36f3 43bc
00000060: 9314 14bd f318 99bd 7e03 f93c f3bd 51bd
00000070: f739 0d3c a6ba 223a 4c85 0fbd 4f2e 963c
00000080: 02a2 5b3b b105 f9bc fde5 97bd d38f 683c
00000090: e7b8 b9bd c7a9 cfbc 48c3 55bd 4650 ad3c
000000a0: cb10 a63d 1123 25bd 1630 333d eebe 06bd
000000b0: d926 2d3d 0802 193d cc7b 82bc 4e63 8bbd
000000c0: bc61 703d 1bcc c1bc 8acd 06bd 7b39 21bd
000000d0: d0bb c73a dd0a a6bd 0172 aabb d028 03bb
000000e0: cf8f b33c 4c5d e4bd 5dc3 8e3c f316 31bc
000000f0: 1543 ed3c d4d3 a3bc a899 d93a d940 47bc
00000100: 690e 32bc 087b eb3b e362 2d3d 654f 11bd
00000110: 3a88 323b 944d 39bc cebd 173d 8a1a a43d
00000120: 5cf7 26bb 150b 4cbd e5ec 87bd 1c90 b13d
00000130: 605a ab3d 6587 4e3d b5d4 cabb dd80 ad3d
00000140: 8317 153d 5f2e 2fbd a5a3 253c 918e 543c
00000150: 8824 fa3a 0191 68bd 6b3f c0bc 7168 f03c
00000160: 43a4 573c 2741 e73d c882 6cbc 87d4 ff3c
00000170: 22be 0b3d ca70 51bc fd10 bdbc 91be 043d
00000180: 2d9f c53c f9e0 4ebd 64de 90bd 0709 5cbc
00000190: 46fb 8d3d 36ab 07bd 6f5d 2abd b26a c2bc
000001a0: 2229 883b 17db 823d 8722 e43c dde9 353d
000001b0: 4ca6 24bd ff2f bcbd fee2 30bd 7d1f 1bbd
000001c0: 05d1 993c b2a6 0bbd 0bdc f0bc 2288 09bd
000001d0: ce9f 813c 6084 093d d819 9bbc 77b9 78bd
000001e0: d414 0f3c 11a9 e63c ca83 84bb 81cb b9bb
000001f0: 501e 473b 3cb7 39bd 33be 2e3d 765b 4c3d
00000200: 8b78 993c faa5 1f3c 493a 273c 6d11 d0b9
00000210: bf14 8e3c b838 1ebc 4a76 bebc edad 34bd
00000220: 1f70 ba3c cea9 163d bdc9 d0bc 7658 44bd
00000230: 439d 32bd 9373 8bbd c355 b8bd d577 fe3c
00000240: b2e5 8cbd 1996 d3bd a444 3bbd d5e5 27bd
00000250: 522a 37bc fa26 79bd ac3d 89bd e913 7bbd
00000260: b0e4 24bd 6848 1fbd cec2 b5bd 7c83 b83c
00000270: 56f0 013d 826f 6bbd fdc5 e3bb 54ae 293c
00000280: dba1 113c f22d 353c 2e23 ce3c 39fc 1fbd
00000290: e7df a4bc 694e e33c e489 023c 8397 5bbc
000002a0: 9285 253d 5976 863d 740b 843d b0e9 09bc
000002b0: eccf b23c 9bf0 8a3d 26ee d93b d4d2 423d
000002c0: 7e34 15bd b691 463b c740 6e3d ecde 33bc
000002d0: be55 90bd c4d5 703c 7b11 3abd 8fe9 573d
000002e0: 0502 e5b9 adc3 5abd 516b b3bd 626b 98bc
000002f0: a199 47bd 5b14 a0bd 439d 23bd b204 1abc
00000300: 8dc4 e3bc f412 5abd ba25 89bd bfb8 f1bd
00000310: 8e19 133d 565b e9bc c987 a5bc f1bd b03c
00000320: 622a 343c afbc f2bd 4c53 aebb b9f4 d93d
00000330: c6e5 70bd 2882 b8bc b403 1dbb e424 a6bd
00000340: aef7 58bd f0e6 583d 9b5f 9e3d f8cc b03a
00000350: e757 87bb 8f70 993d 53af 963d a2d1 f23c
00000360: 9d7f 36bd d468 bcbd d552 e7bc 4d0d 85bc
00000370: 4b82 ccbc b0d7 74bc 488e a1bc 478b 3fbc
00000380: a3ec f8bc a2a2 05bd b3fd debc 0613 e8bc
00000390: 5d62 ef3c da16 983d aa1b 63bd f7b0 e0bd
000003a0: 803f 823d 9676 8f3d 90a4 e03d 8109 47bd
000003b0: 76d8 cc3c 813f 70bd 22ef b0bc 4ca8 5c3c
000003c0: ec67 c13c cd7b 95bd 0af2 72bd b4e3 07bd
000003d0: 47ca 833d 8dfb 3bbd 749d 5c3d bc09 113b
000003e0: 8d97 083d 110a f63c 639e 3d3d 2469 0d3a
000003f0: 8fb0 273b d159 64b9 b356 8abc e67a 5ab9
-0.009404304 -0.037390854 -0.018424127 -0.048277657 -0.01415655 0.09709431 -0.04144236 -0.010048151
0.006690304 -0.007837233 -0.05756398 -0.035550687 -0.0060434635 -0.0069639212 0.025476493 -0.0033156178
-0.0011881745 -0.03258724 -0.023640774 -0.022453265 -0.015559548 -0.06542187 -0.00081427826 -0.0119598415
-0.036152434 -0.07475462 0.030397173 -0.05120654 0.008619777 0.00062076224 -0.03503923 0.018332629
0.0033513312 -0.030398222 -0.07416914 0.014194447 -0.090684704 -0.02534951 -0.052188188 0.021156441
0.08108672 -0.040316645 0.04374703 -0.03289693 0.042273376 0.037355453 -0.015928172 -0.0680605
0.058686957 -0.023656895 -0.03291086 -0.03936146 0.0015238468 -0.08107541 -0.0052015786 -0.002001334
0.02191916 -0.111506075 0.01742714 -0.010808694 0.028962651 -0.019998468 0.0016601579 -0.012161457
-0.010867693 0.0071862973 0.042330634 -0.035476107 0.0027241842 -0.01131 0.037046246 0.080128744
-0.0025477028 -0.049815256 -0.06636981 0.08670065 0.08366847 0.05042209 -0.0061899074 0.08471844
0.036399376 -0.042768832 0.010109817 0.012973444 0.0019084373 -0.05677891 -0.02346774 0.029346677
0.013161722 0.11291724 -0.014435478 0.03122927 0.03411687 -0.012783239 -0.02307939 0.0324083
0.024123752 -0.05050752 -0.07073668 -0.013429887 0.06932692 -0.033122264 -0.04159301 -0.023732517
0.004155294 0.06389444 0.027848495 0.044412483 -0.040197656 -0.09188842 -0.043185227 -0.037871826
0.018776426 -0.03409452 -0.0294018 -0.033577092 0.015823271 0.03357351 -0.018933222 -0.060723748
0.008732993 0.028156789 -0.004044031 -0.0056700115 0.0030383058 -0.04534076 0.042661857 0.04989191
0.018734237 0.009744162 0.010206767 -0.00039685835 0.017343877 -0.0096570775 -0.023249764 -0.04411118
0.022758542 0.036783032 -0.025486821 -0.047935925 -0.043607008 -0.068091534 -0.09000733 0.031063
-0.068797484 -0.10331363 -0.045719758 -0.04099067 -0.011179524 -0.060828187 -0.06701216 -0.061298285
-0.040257156 -0.03888741 -0.08875047 0.022523634 0.031723343 -0.05747939 -0.0069510923 0.0103565045
0.008888687 0.0110583175 0.02516326 -0.039058898 -0.020126296 0.02774735 0.007967446 -0.013402822
0.040410586 0.06565542 0.06447497 -0.008417532 0.02182766 0.06784173 0.006650704 0.047564343
-0.036427014 0.0030299253 0.058167245 -0.010978442 -0.07047604 0.014699403 -0.045426827 0.052712973
-0.00043679788 -0.053409267 -0.08760703 -0.018605892 -0.048730496 -0.078163825 -0.0399449 -0.0094005335
-0.027803684 -0.05324073 -0.06696649 -0.11802816 0.035913043 -0.028485935 -0.020206349 0.021574946
0.010996433 -0.11852395 -0.0053199884 0.1064238 -0.05881288 -0.022523 -0.0023958506 -0.08112505
-0.05297058 0.052954614 0.07733079 0.001348882 -0.004130352 0.07492172 0.07357659 0.029640976
-0.044555295 -0.09199682 -0.02823774 -0.016241694 -0.024964472 -0.014944002 -0.019721165 -0.011690921
-0.030386275 -0.0326258 -0.027220583 -0.028329384 0.029221708 0.074262336 -0.055446304 -0.10971253
0.06359768 0.0700504 0.10968888 -0.048593048 0.02500556 -0.058654312 -0.021598402 0.0134678595
0.023609124 -0.07299004 -0.059312858 -0.03317614 0.06435066 -0.045894194 0.053861097 0.0022131046
0.033347655 0.030034097 0.046293627 0.00053943903 0.0025587415 -0.00021777234 -0.016887045 -0.00020835883

fc1.bias f4 [128]
00000000: 8091 d43d 53cd 4cbb 2832 ae3d 5bb9 fbbc
00000010: 3152 33bd 9d08 933d c641 273d 60e0 303d
00000020: dce4 6cbd b796 edbd 5eb3 9bbc 5b6f ce3d
00000030: 2475 40bd f8cd 2ebc 918e 333e 8123 3f3e
00000040: c403 a3bc ec68 99bd ad28 02bd 250f 903d
00000050: ba4a 83bd 5ba1 ef3d f554 1ebc 50fc d6bc
00000060: b73f cd3b 159a a2bd 4db1 11bd 2edf 6b3d
00000070: fa5b e13d 0c74 223d 98fe a43d c996 bbbc
00000080: 2012 bf3c f8fa e13d 3ff8 163b 8502 bc3d
00000090: 0721 d03d 0467 b7bd 96d9 b2bc b88e 063e
000000a0: 701d 3ebd 0d8e aebc 99bd 64bd b9e8 023d
000000b0: 2242 cf3d fbd8 84bd 62dd 7a3d 5e5e 993d
000000c0: 1f0e 12bd 3cd0 cabc d86f 61bd 3f50 6bbd
000000d0: 8e5e 253e 73e3 07be e0a3 033e 081c 1a3d
000000e0: 4c7d da3b a789 36bc 2a40 afbc bac8 813d
000000f0: 7a18 513e d216 1abd 94fe 8e3d 7355 1bbd
00000100: 2774 123e 08d4 363e aa47 5bbc 0b41 873d
00000110: 016a c13d 3bb2 a73d 3aaf 11bc 9656 333d
00000120: cb17 943b 9ae6 523c 7f7e 47bd 33f9 ad3d
00000130: 293a 57bc 8566 08bc 3e4f ccbd fbd4 c63d
00000140: 2bae 083e ea7d 163e 3a7e 643c 148b 09bd
00000150: 9436 66bc 94ab ec3c c4e0 afbd 2b2d 063d
00000160: a517 0b3d ce4d 373d 2760 f03d bc84 fc3d
00000170: 4a3a 733d d061 9bbc a66e 73bd a3c1 cc3c
00000180: 7a00 64bb 5cc1 4f3e 8a3d e5bb b22f 2b3c
00000190: d506 633d 8c38 403a eb5e 463e db99 0e3e
000001a0: fe5d e23c 9d71 c13c 1199 0a3e 868b 183e
000001b0: 3856 cc3c 3f7a e73c 0130 2f3d 7e70 c63d
000001c0: 9c25 ad3c c9ec 2cbc c84d 42bd 1fb2 693d
000001d0: 6bf4 553c bb57 d13c a5c0 883c d4bc c13d
000001e0: ecd0 fe3b 4163 4abd 4b38 073e 663f 87bd
000001f0: 9032 913c 2721 493e 6349 2c3d 68be 13be
0.103793144 -0.0031250312 0.0850566 -0.030728033 -0.043779556 0.07179377 0.04083421 0.04318273
-0.057835445 -0.11601012 -0.019006427 0.10079833 -0.046986714 -0.010669224 0.17534854 0.18665887
-0.019899257 -0.074907154 -0.031777073 0.070341386 -0.06410737 0.11700698 -0.00966381 -0.026243359
0.006263699 -0.07939545 -0.035569478 0.057585888 0.11003871 0.039661452 0.080563724 -0.022899048
0.023324072 0.110341966 0.002303615 0.09180168 0.101625495 -0.089551955 -0.021832269 0.1314038
-0.046414793 -0.02130797 -0.055844877 0.031960223 0.10120036 -0.06486698 0.061246283 0.07488702
-0.035658 -0.024757497 -0.055038303 -0.057449576 0.16149351 -0.13270359 0.12855482 0.03762439
0.0066677686 -0.011141217 -0.0213929 0.06337114 0.20419493 -0.03761942 0.06982151 -0.037923288
0.14302121 0.17854321 -0.013383785 0.06604203 0.09444047 0.08188292 -0.008891875 0.043783747
0.004519438 0.0128723625 -0.04870462 0.084947966 -0.013136425 -0.008325224 -0.09976052 0.097085916
0.1334769 0.1469647 0.01394611 -0.0335799 -0.014051098 0.028890409 -0.085877925 0.03275792
0.033958096 0.044751935 0.117370896 0.123300046 0.05938176 -0.01896754 -0.059431694 0.024994677
-0.0034790323 0.20288604 -0.0069958614 0.010448383 0.055426437 0.0007332645 0.19372146 0.13925879
0.02763271 0.023613745 0.13534953 0.14896974 0.024943456 0.028256534 0.04277039 0.09689425
0.021136098 -0.010554501 -0.04743746 0.057054635 0.013058762 0.025554528 0.016693423 0.09459844
0.0077763703 -0.049411062 0.13205068 -0.06603889 0.017724305 0.19641553 0.042062175 -0.14428103

fc2.weight f4 [64, 128]
00000000: 85bb e8bd b3a4 723d 8bd7 d9bd a3d5 ac3d
00000010: 6f21 04bd a9e6 32be e12c eebd 800c 18bd
00000020: 2f11 b33c 54e9 01bd ae29 19bc 404c 92bd
00000030: 10d3 c2bd fd59 efbd a0f9 21be d06f 65bd
00000040: bcbe 843d 4802 5dbc 1dcd b63b f860 e3bc
00000050: b483 99bd 7b05 55bd a4ff 9f3c d0c5 8fba
00000060: 3257 43bd b032 083e ac2f 3c3d 5782 04be
00000070: 6bee 3f3e 3727 183e 19f7 353d d7b1 3f3e
00000080: 1f0b 7b3d 7d57 31be 8f4e f33d 6c02 5a3e
00000090: 97aa cbbd 887f 533d 027c f9bd 39e7 9dbc
000000a0: 5099 0dbe e61d ee3d ce50 d2bc 7992 d23d
000000b0: 58d0 63be ab02 813d fdb6 bfbb 5a96 e2bc
000000c0: ff71 0a3e f975 563d ddd0 d9bb 0eb8 8e3d
000000d0: aa00 133b e396 bd3d 143c d7bd 5e16 013e
000000e0: bcde 413d 362f 53bd fb83 bc3c a4fb 4fbd
000000f0: cb6b 89bd 293c 36bb 870f 953c 481e 123d
00000100: 79b1 453e 6011 15bd 423d 003d 3797 17bc
00000110: 12c1 173e c24a 63be 45c5 88bd 2737 cdbd
00000120: 1013 5f3c e96a 823d 0fb3 683c e13c 623d
00000130: b9e3 913c d9bc 6d3d 36f8 293c 80f7 9d3c
00000140: d02b 5abc bc97 2f3d f0b7 9abd 9d5e 06bd
00000150: 2d1e ac3d 615e 163c 3297 303e 7945 00be
00000160: 3507 cd3d 0906 07be b45c 3bbe 2d30 19bd
00000170: 2fe2 11be 8124 ca3d 48f9 843a 3862 523d
00000180: 730b 22bb a667 443d ffd8 323d 9f22 79bd
00000190: 34cc 2c3b 5ada 1c3d fd58 89bc 2371 7c3d
000001a0: c9a6 b63d 7d0c 0f3d 5044 123e 3d5a 203e
000001b0: c4f5 01bc 22cd 0f3b ca32 db3d 9de8 a9bd
000001c0: a9f2 d93d 8a27 60bc 4bea 963d 4733 f8bd
000001d0: 3610 003e 1ff6 8a3c aebb 593d 0c14 2bbd
000001e0: 87f8 51bb f420 0cbe f1c2 f0bd 3662 3e3d
000001f0: 0f2f 1bbd a71b 1bbe cab4 44bd ef98 243e
00000200: 8dfb 43bd 30fb ebbc 7d63 f33d 6b2c 5dbd
00000210: b14a 0d3d 9fc6 ed3c 2bae 9c3b b0e7 83bd
00000220: 30ac a83d ea8c 5d3d bba5 333d 7413 863c
00000230: 5ad3 db3c 42e9 d53d 93b7 0ebe 61ea e0bd
00000240: 509c cb3c bca4 2d3d 69de 943b 8255 7cbd
00000250: 91de cf3d 0808 2dbd f3ab 513e 5e57 f73c
00000260: e463 bf3c a127 6e3e e523 d43c a737 2ebd
00000270: fe8b 2cbd 3930 223c 6598 823b 3966 453b
00000280: 5459 b0bd 178c 23be ec23 313e 0ad7 433c
00000290: de4c 36bd 78a0 113e 3921 6a3d 195f 2bbe
000002a0: a2a4 dc3d 2f16 8cbb da49 d23d 4d25 a63c
000002b0: 72b1 30be 5d3e 1a3e 385c 963d 3e00 613d
000002c0: 3faf 5abd 35c1 db3d f29e 0ebb d991 153e
000002d0: 57cc 04bb 2053 013e c58f 6dbd 96a7 70bd
000002e0: 1d0c a43d 8d53 35bd fbe5 17bd cffd 0e3d
000002f0: faf7 8bbc a83e c63a 4842 8e3d 2241 c03d
00000300: d542 73bd 086f fdbd 8f1c 963c 1c9b 693d
00000310: 1fcb 9f3c e748 12bd 0997 513d c5b4 01bd
00000320: f5b7 16be 86a1 143c 705e fa3d 52e8 563d
00000330: 5d82 813c 9b85 79bc 37b0 2e3e 7d7d 1b3d
00000340: 391d f1bd 44e2 b1bd d76e 8a3d de5c 22bd
00000350: a67e 9ebd ca44 07be 1af9 1bbd e640 d9bc
00000360: 581a a53c 0a50 263e 0b1f 903d 32fe 103c
00000370: 1994 043d 735d 91bc 5b0e 8c3d e084 c83d
00000380: dbd7 803d 4164 8bbd 95d2 dcbd d5f9 193d
00000390: 9976 6dbd 77c3 103c 54a8 42bd b921 efbd
000003a0: 3c1f b63c fef6 973d 5cf0 22be 4a0e 3abe
000003b0: a63b 403d 2090 863d cc17 9fbc 77a0 983c
000003c0: 5866 a3bc b4a7 9ebc 2cc5 2b3e 9c9f c33d
000003d0: 3c1a 263d 084b 1dbd 204b 03bd ab1f 8d3d
000003e0: 987d ddbd 3e1b 993a 2c59 22be 48fe a93b
000003f0: 0f03 08bc 4144 07be 25e1 da3d c438 5cbd
-0.113638915 0.0592391 -0.10636815 0.084391855 -0.032258447 -0.17470802 -0.11629654 -0.037121296
0.02185878 -0.03171666 -0.009348316 -0.0714345 -0.09512913 -0.11687086 -0.1581788 -0.056014836
0.06481692 -0.013489313 0.0055786506 -0.0277562 -0.074958235 -0.05200718 0.019531079 -0.0010968987
-0.047690578 0.13300586 0.0459439 -0.12940346 0.18743293 0.1485871 0.044425104 0.18720184
0.061289903 -0.1731853 0.11880218 0.21289986 -0.09944647 0.051635295 -0.12181856 -0.019275295
-0.13828015 0.116267964 -0.025673296 0.10281844 -0.22247446 0.06299337 -0.0058506713 -0.027659584
0.13520049 0.0523586 -0.006647213 0.069686994 0.0022430816 0.09257295 -0.10509506 0.12606189
0.047331557 -0.051558696 0.023012152 -0.050777093 -0.06710013 -0.0027806854 0.01819588 0.03567341
0.19305982 -0.036393523 0.03130842 -0.009252361 0.14819744 -0.22196487 -0.06678251 -0.10020285
0.013615385 0.06368048 0.014202847 0.05523384 0.017808782 0.058041427 0.0103741195 0.019283056
-0.01331611 0.042869315 -0.075546145 -0.032805074 0.08404193 0.009177775 0.17245176 -0.12526502
0.1001114 -0.13185896 -0.18297082 -0.03739946 -0.14246438 0.09870244 0.0010145092 0.0513632
-0.0024726063 0.04795041 0.043663975 -0.060824033 0.0026366832 0.038294174 -0.016766066 0.061631333
0.089185305 0.03492402 0.14283872 0.15659423 -0.00793213 0.0021942337 0.107030466 -0.082963206
0.10641987 -0.013681302 0.073689066 -0.121191554 0.12506184 0.016963063 0.0531575 -0.041767165
-0.0032039003 -0.13684446 -0.11755932 0.04648038 -0.037886675 -0.15147267 -0.048023976 0.16073965
-0.04784732 -0.028806299 0.1188421 -0.05399744 0.03449506 0.029025374 0.0047815046 -0.06440675
0.08235967 0.054089464 0.043859225 0.016366698 0.026834179 0.10444881 -0.13937216 -0.10982204
0.024854809 0.04239343 0.004543115 -0.061604984 0.10149873 -0.042243987 0.2047575 0.030193027
0.023363061 0.23257305 0.025896022 -0.042533543 -0.042125694 0.0098991925 0.003985452 0.0030120744
-0.08610788 -0.15971409 0.1729886 0.011953125 -0.0445069 0.1422137 0.05716059 -0.16735496
0.10773589 -0.0042751054 0.10267992 0.020281458 -0.1725519 0.15062852 0.07341808 0.05493187
-0.053389784 0.10730211 -0.002176222 0.14606418 -0.0020263398 0.12629366 -0.057998437 -0.058753572
0.08010123 -0.044269133 -0.03708456 0.03491002 -0.017086018 0.0015124874 0.06946236 0.09387423
-0.059389908 -0.12374693 0.018324165 0.05703269 0.019506035 -0.035714056 0.05116943 -0.031666536
-0.14718612 0.009071713 0.12225044 0.05246765 0.015809232 -0.015229608 0.17059408 0.03796147
-0.11773152 -0.08685735 0.06759422 -0.039639346 -0.07739 -0.13209835 -0.03807936 -0.026520204
0.020154163 0.1624147 0.07037171 0.008849667 0.0323678 -0.017744755 0.068386756 0.09790969
0.06291171 -0.06806231 -0.10782353 0.037591774 -0.05797443 0.008835665 -0.04752381 -0.11676354
0.02223169 0.07420157 -0.15912002 -0.18169513 0.046931885 0.065704584 -0.019420527 0.018631203
-0.019946262 -0.019367076 0.16774434 0.095519274 0.040552363 -0.038401634 -0.032054067 0.06890806
-0.10814971 0.0011681092 -0.15854329 0.0051877834 -0.0083015105 -0.1320963 0.10687474 -0.053765073

fc2.bias f4 [64]
00000000: b3ff 583e 3ba4 463c 3371 a83e 9afa b73e
00000010: 8b28 473d 7019 993e b19c 523e 0367 803e
00000020: 8bcf 4f3e 084e 8a3d c4b9 823e 0fa4 ad3e
00000030: 8cb0 013e da8e d43d 4ef8 8f3d 85c4 9c3d
00000040: 42d7 463e fb82 103e 9a5f 753d c1fb dd3d
00000050: 6853 9d3e e209 2c3e e720 ff3e 3dcd 723e
00000060: db7b 5d3d 748f 993e 632b 5a3d e5e9 ba3d
00000070: 2eaa ed3e fef5 783e 7e6f 783e 9978 623d
00000080: 9743 b73e b580 9b3e 6966 763e 4fad 0f3e
00000090: 2b52 113e a4eb 50bc b54b ed3e 840b 08bb
000000a0: 29b3 e73e 63c8 6f3e 79c7 0a3e 0e3a 1c3d
000000b0: 36dd 773e 76b9 813e 87b8 703e ee7b 983e
000000c0: 4b99 7e3e e744 9e3d 3fc8 893e 756e aa3e
000000d0: 1086 953e 5218 d83d c3b8 183e 3710 9b3e
000000e0: 6d20 083e d83f ac3e b8b1 333e b8fa 443e
000000f0: d5d5 b83d 0b34 d93e 9778 d23e b7c7 2b3e
0.21191292 0.0121241165 0.32898864 0.3593338 0.04862265 0.2990222 0.20567586 0.25078592
0.20294015 0.067531645 0.25532353 0.3391423 0.12665004 0.10378809 0.07029782 0.076546706
0.19418052 0.14112465 0.059905626 0.10839034 0.30727696 0.16800645 0.4982979 0.23711105
0.054073196 0.2999226 0.053264033 0.09126643 0.464189 0.24312589 0.24261281 0.055290792
0.35793754 0.30371633 0.24062504 0.14030956 0.14191501 -0.012751494 0.46346822 -0.0020758817
0.45253876 0.23416285 0.13552655 0.038141303 0.24205479 0.25336808 0.23507892 0.2978205
0.24863164 0.07727986 0.26910588 0.33287397 0.29203844 0.10551514 0.14914231 0.30285808
0.1329362 0.3364246 0.17548263 0.19236267 0.0902516 0.42422518 0.41107628 0.16775404

fc3.weight f4 [10, 64]
00000000: 7230 923e 65df 383e ee2b 96be 3ed8 58be
00000010: 27df 303c 0b4b 82be 031c a8be d674 903e
00000020: 1c03 993e 749c 15bd 7d8e 27be 6361 633e
00000030: 8e6c 10be af10 91be c884 a03e 8ba0 5dbe
00000040: 6efe a43e 26d1 3f3e 638e fe3d d526 cabd
00000050: 7e3c 61be c778 19be 635b d53e 67d1 c33e
00000060: 7b2d b4bd 91a7 963e 8944 8e3e 9ea8 7c3e
00000070: 40eb 9abe 5199 883e 5477 59be 6b01 923e
00000080: 58a2 993e 86db 973e 3e7b 823e 9c88 a33e
00000090: 78eb 753e d5d0 c53d 0651 563e bcd8 413e
000000a0: db4e 223e a195 fabc 93a0 b53d 3258 c8bd
000000b0: b2fe 2dbe 7ce1 7a3e 41f1 4ebe 2934 9abe
000000c0: 1e53 ae3e 4dde 593e 67bb 913e 5b03 143e
000000d0: df12 79be ae70 be3e ae65 963e 1fa3 a6bd
000000e0: 31b8 923e 4a49 ffbe ec5c 15be 8227 543e
000000f0: 018f 4dbe 60c1 89be 22f0 803e 445d b33e
00000100: 12c9 493e c5c3 be3e 812c af3e 4c5e 9fbe
00000110: 430f 69be d96d 26be 2e6b 9d3d 764e d9bb
00000120: f474 45be c5b4 593e 73ae ca3e 1681 cebe
00000130: 3ef3 503e 16a0 853e b653 973e ec14 723e
00000140: 8053 7f3e 85ec d6bd aab2 89bc ae9b 1bbe
00000150: 89ce f5bd 3c94 133e c454 b3be 7618 18be
00000160: d252 973e feee eebe 548d a83e cc36 833e
00000170: a277 87bd 284f a2be 5252 c33e 11ee 933e
00000180: ea8e 7abe 341f a83e 7553 7cbe 7ea6 d5bd
00000190: c722 813e ff5a aebc 330e bfbe ca2c 9a3e
000001a0: 5eb6 6fbe 79ca 91be 9243 ab3b 6ea5 c13d
000001b0: 8a44 a33e c695 ad3e 22b0 763e 2602 afbd
000001c0: 56d9 d83b 3037 9c3e c7d1 7b3e 7044 bdbd
000001d0: 72d0 67be 7794 be3e 7fdb 993e aa60 ccbd
000001e0: fcec 923e 135d 953e 3571 ab3e d827 85bd
000001f0: 580a 5abd 4331 15be 356e 8d3e bd4b 07be
00000200: 8af1 943e b0ef 7d3d d48b 133c 67eb 99bb
00000210: 9c61 85be 442b b63e 0dab 9c3e 676b 373e
00000220: 48c7 a53e a88a 6dbd ab0c 293e 79d4 8c3e
00000230: ef66 abbd f441 10bd b88b 9abe f7b4 2d3e
00000240: 1a6f 0d3e 7ae2 513e f949 27be 43ff ca3e
00000250: bcb8 cc3e d662 a3be bcab ec3e c150 b13e
00000260: f135 863e 197e a63e 4d74 9e3e 8107 dfbe
00000270: c1fe f13e ad2d 8c3e 7743 eb3d f1de 873e
00000280: e682 ad3e 8a12 3e3e c10e 0dbc 400c 893d
00000290: 9325 6a3e ec13 09be 5c95 2fbd 6059 853e
000002a0: a770 e43e f86f 2abe d96e 80be ace9 00be
000002b0: 27ff a93c f799 6cbe 12c0 a7be bb05 023e
000002c0: 9f7f cc3e 819c debd 8ca7 24be 9e96 b73e
000002d0: 5c82 a03e 7269 bb3d dd93 453e a3e1 213e
000002e0: 54e3 0ebe 086b 7f3e 989d e93c 034f 283e
000002f0: 8f0c 873e 1bd6 733e 7946 703e 1948 69be
00000300: 8522 7f3e d272 1ebd cd83 a63e 8d26 a93e
00000310: 854a 08be b9ce cbbc e092 033d 6b99 26be
00000320: 2a91 25be a034 b3bd 5a3b 26be 86b3 983e
00000330: fbc8 103e fdd3 e5bd 3656 753e 1859 9ebe
00000340: 994d af3d 2b37 253e db9d 5a3e 6890 013d
00000350: 6985 cebd 2c8b 353e 2d65 e83e 2939 a43e
00000360: b336 a5bd 804d a03e e1f6 a8be c469 513d
00000370: 503b fb3e d5b6 8d3e 7614 803e b1cb 4f3e
00000380: 35fb 82bd cc57 81be 517c 26be dd49 8c3c
00000390: 8b3a 183e f109 5cbe bc3c 943e a9c8 823d
000003a0: cdb6 eb3e 0db7 8f3e 3bfc 543e 0a98 533d
000003b0: 0de8 873e 9334 913e 68cf 94bd a934 893e
000003c0: b2a2 29bd 39a4 cf3d bb4a 82be d028 bb3e
000003d0: 0fcb 663e 21ee d1bd 35a9 94be aa48 763e
000003e0: 2170 8c3d b371 a93e cbe3 843e 27ae abbd
000003f0: d708 11bc 2977 a93e 1d9d 6c3e 3f4b 303e
0.28552586 0.18053968 -0.2933039 -0.2117624 0.010795391 -0.25447878 -0.3283387 0.2821414
0.29885185 -0.03652616 -0.16362949 0.22205119 -0.1410391 -0.2833304 0.31351304 -0.21643274
0.32225364 0.18732128 0.12429502 -0.09870688 -0.21995732 -0.14987479 0.41671285 0.382457
-0.08797737 0.29424718 0.27786663 0.24673697 -0.30257607 0.2667947 -0.21236926 0.28516707
0.3000667 0.2965967 0.2548465 0.31940162 0.24015605 0.09658972 0.20929345 0.18930334
0.15850393 -0.030588927 0.08868518 -0.09782447 -0.1699169 0.24500078 -0.20209219 -0.3011792
0.34047788 0.21276207 0.2846329 0.14454405 -0.24323605 0.37195343 0.2937445 -0.08136582
0.28656152 -0.49860603 -0.14586228 0.20718196 -0.20074083 -0.26905346 0.25183207 0.35032094
0.19705608 0.37258735 0.3421364 -0.3112663 -0.22759728 -0.16252841 0.076864585 -0.0066316677
-0.19282895 0.21260364 0.3958622 -0.4033286 0.2040529 0.26098698 0.29556054 0.23640794
0.24934196 -0.10494331 -0.016808826 -0.15196106 -0.12002284 0.14412016 -0.3502561 -0.14853081
0.29555374 -0.46666712 0.32920325 0.25627744 -0.06614615 -0.31701016 0.38148743 0.28892568
-0.2446858 0.32836306 -0.24641211 -0.104321465 0.25221846 -0.021283625 -0.3731552 0.30112296
-0.23409411 -0.28474787 0.005226561 0.09455381 0.3188823 0.3390333 0.24090627 -0.08545332
0.0066177053 0.30510855 0.24591742 -0.09241569 -0.2263811 0.37222645 0.30050275 -0.09979375
0.2869643 0.29172572 0.33484808 -0.0650174 -0.05323252 -0.14569573 0.27623144 -0.13212486
0.2909053 0.061996162 0.009005506 -0.0046972516 -0.26051033 0.35579884 0.3059925 0.17912064
0.32378602 -0.05799356 0.16508739 0.27505854 -0.083692424 -0.035219148 -0.30184722 0.16963564
0.13811913 0.2049655 -0.16336812 0.39647874 0.3998469 -0.31911343 0.46224773 0.34631923
0.2621303 0.3251808 0.30948105 -0.43560413 0.47264674 0.27378598 0.11487477 0.26537278
0.3388893 0.1856176 -0.008609475 0.066917896 0.22865896 -0.13386506 -0.04286705 0.2604475
0.44617197 -0.16644275 -0.2508457 -0.12589139 0.020751549 -0.23105608 -0.32763726 0.12697499
0.39941117 -0.108696945 -0.16079539 0.358571 0.31349456 0.091509715 0.19294687 0.1580873
-0.13953906 0.24943173 0.02851753 0.1643639 0.2637677 0.23812144 0.23464383 -0.2278141
0.24915512 -0.03868372 0.3252243 0.33037224 -0.13309677 -0.024878846 0.032122493 -0.16269462
-0.16168657 -0.08750272 -0.16233578 0.29824466 0.14139168 -0.11222074 0.23958668 -0.30927348
0.085597225 0.16134326 0.2134928 0.031631857 -0.1008404 0.17728871 0.4538969 0.3207486
-0.08067074 0.31309128 -0.33000854 0.051126257 0.4906869 0.27678552 0.2501561 0.20292546
-0.0639557 -0.25262296 -0.1625836 0.017125065 0.14866082 -0.21488167 0.28952587 0.06385929
0.46037903 0.28069344 0.20799343 0.051658668 0.26544228 0.28360423 -0.07266122 0.2679799
-0.041414924 0.10138745 -0.2544764 0.36554575 0.22538398 -0.102504976 -0.29035345 0.24051157
0.068573244 0.33094558 0.25955042 -0.08382826 -0.008852205 0.33098724 0.23106809 0.17216204

fc3.bias f4 [10]
00000000: d22b 793e f47f 23be a0fd 193e 8c84 2e3f
00000010: dcf1 2d3f a400 913e 24c0 d43e 372f 223e
00000020: af13 8b3b d847 5a3e
0.24333122 -0.15966779 0.15038157 0.68171 0.67947173 0.283208 0.41552842 0.15838324
0.00424429 0.21316469
