convolutional-neural-networks/cifar-cnn/model_cifar.pt (torch_old, 656638 bytes, 12 tensors)

conv1.weight f4 [16, 3, 3, 3]
0.12451206 -0.14408658 0.28702113 0.43117964 0.054179717 0.06467686 0.06865043 0.386303
-0.1503734 0.031016042 -0.5161274 -0.27285722 0.37443534 -0.23391089 -0.6569238 0.10296295
0.15717839 -0.5047758 0.174924 -0.16783245 -0.12549298 0.38151002 -0.11117214 -0.6348175
0.49060988 0.51802415 -0.10163206 -0.17748475 0.26969567 0.13727574 0.22355476 0.102554664
0.014543315 0.13390659 0.13661951 0.19497362 0.03256408 0.2412738 0.113714665 -0.017857663
0.103469975 0.11165203 0.016764393 0.05271678 -0.20049639 0.1432138 0.3103154 0.2974664
0.057227697 0.41330454 0.25514323 -0.20324542 -0.045945354 0.106733836 -0.581225 -0.5285297
-0.32347545 0.25908357 -0.007636527 -0.11124671 0.38942543 0.6097214 0.35219076 -0.48620048
-0.46856758 -0.2991342 0.27342585 -0.24979334 0.19787832 0.3072609 0.3931869 0.20552072
-0.39779833 -0.38290966 -0.28244928 0.32779604 0.11478411 0.13071406 0.16218558 0.20974772
0.14274865 -0.21523209 -0.2769685 -0.0027108218 -0.6169463 -0.49418664 -0.1842259 -0.42440706
-0.47994214 -0.26128364 0.07793723 0.045657344 -0.20505282 0.16843817 0.05304011 -0.016691232
0.018484198 -0.07801904 0.0026615777 0.21064319 0.34998265 0.06261256 0.4616511 0.6148269
0.17174093 0.2245857 0.40546742 0.28699452 -0.06203453 0.20603247 0.2308875 -0.33296958
0.030842334 0.16864547 -0.3205313 -0.20293678 0.09757738 -0.45450035 -0.14966619 0.017616546
-0.37082145 -0.2591664 -0.21081956 -0.26985806 -0.10345541 -0.010824393 0.033748228 -0.12580912
-0.049476266 -0.021208633 -0.05050253 -0.12347926 -0.15467764 -0.05144866 -0.028281275 0.60721964
0.19108142 -0.60094595 0.06411611 -0.106069595 -0.11489204 -0.5795093 -0.05724157 0.46989185
0.42988926 -0.00026341228 -0.5614179 0.06581748 -0.09442893 0.20550592 -0.61819327 -0.008614476
0.62543833 0.589843 0.038513876 -0.6547015 -0.05267098 0.1879665 -0.16059837 -0.5107191
-0.13137098 0.8224811 0.12011455 -0.5870302 0.56477803 0.39987412 -0.806301 0.3634139
0.36849275 -0.52809745 0.12418135 0.05454922 -0.6919018 0.5786197 0.5477361 -0.91257966
0.38963675 0.36095214 -0.27171838 -0.066054225 0.17821129 -0.57309824 0.33454338 0.4663196
-0.7510195 0.4129351 0.27872536 -0.3165556 0.10011229 0.23588714 0.44934264 0.42442814
-0.4788015 -0.13386121 0.08648079 -0.25212783 -0.24588044 -0.24750799 0.10318118 0.3391363
0.2930256 -0.50684565 -0.10446319 0.21873751 0.055817448 -0.3183026 -0.30260548 0.19605775
0.3677785 0.2272596 -0.059625518 -0.22837701 0.049679406 -0.17371097 -0.105798535 0.012662078
-0.2547643 -0.32444698 -0.052883733 -0.3720229 -0.3069227 -0.06338974 -0.10662376 0.16191858
0.008470691 -0.19493105 -0.007747542 -0.015349582 0.20874709 0.33422258 0.44328994 0.16940397
0.45704132 0.2606276 -0.24454726 -0.23076701 -0.05701228 -0.2682106 0.050101902 0.23021826
0.12768517 0.04669359 0.1345135 0.7703882 0.96269494 0.66302997 -0.015523339 0.08154621
-0.02493872 -0.32653302 -0.06453471 -0.20890519 0.2522199 0.1886103 -0.03985982 -0.27768406
00000000: 2e00 ff3d 6f8b 13be 6ff4 923e 94c3 dc3e
00000010: 8deb 5d3d 4d75 843d 9998 8c3d 82c9 c53e
00000020: 7cfb 19be 5b15 fe3c ed20 04bf f1b3 8bbe
00000030: fdb5 bf3e 5686 6fbe 282c 28bf 3dde d23d
00000040: 5ff3 203e fd38 01bf 471f 333e 45dc 2bbe
00000050: 3b81 00be 4855 c33e 38ae e3bd 6683 22bf
00000060: 3831 fb3e 3b9d 043f 7824 d0bd 90be 35be
00000070: 8d15 8a3e 0392 0c3e 8aeb 643e 2e08 d23d
00000080: 1647 6e3c cf1e 093e fce5 0b3e 2aa7 473e
00000090: ea61 053d 7b10 773e 3ce3 e83d 3c4a 92bc
000000a0: 11e8 d33d d2a9 e43d 7b55 893c 8ded 573d
000000b0: ed4e 4dbe a3a6 123e a9e1 9e3e 844d 983e
000000c0: 9767 6a3d a79c d33e 22a2 823e 911f 50be
000000d0: 3231 3cbd 4597 da3d 29cb 14bf b94d 07bf
000000e0: 939e a5be 9aa6 843e d53b fabb 51d5 e3bd
000000f0: c562 c73e b416 1c3f 5952 b43e 45ef f8be
00000100: 17e8 efbe 1e28 99be 79fe 8b3e d3c9 7fbe
00000110: 9da0 4a3e 4d51 9d3e cb4f c93e 0674 523e
00000120: 39ac cbbe bc0c c4be 319d 90be e2d4 a73e
00000130: ee13 eb3d e8d9 053e fa13 263e 1bc8 563e
00000140: b42c 123e cd65 5cbe d1ce 8dbe 0ba8 31bb
00000150: 31f0 1dbf 0806 fdbe b7a5 3cbe e24b d9be
00000160: faba f5be f8c6 85be 8e9d 9f3d 3203 3b3d
00000170: 5ef9 51be 0e7b 2c3e 9640 593d 0dbc 88bc
00000180: 2c6c 973c 72c8 9fbd dd6d 2e3b d9b2 573e
00000190: ed30 b33e 043b 803d 885d ec3e 4c65 1d3f
000001a0: dbdc 2f3e cbf9 653e 6d99 cf3e f2f0 923e
000001b0: eb17 7ebd 2dfa 523e c66d 6c3e fd7a aabe
000001c0: 10a9 fc3c 66b1 2c3e ae1c a4be a9ce 4fbe
000001d0: a6d6 c73d 45b4 e8be 1842 19be 9350 903c
000001e0: 4fdc bdbe 75b1 84be 15e1 57be d62a 8abe
000001f0: 6ee0 d3bd cb58 31bc 953b 0a3d 1bd4 00be
00000200: a0a7 4abd babd adbc bedb 4ebd b2e2 fcbd
00000210: d163 1ebe d5bb 52bd 22ae e7bc bf72 1b3f
00000220: d9aa 433e 98d7 19bf 4f4f 833d 043b d9bd
00000230: 854c ebbd b95a 14bf 2376 6abd aa95 f03e
00000240: 721a dc3e 991a 8ab9 15b9 0fbf 51cb 863d
00000250: f463 c1bd 2570 523e ea41 1ebf bb23 0dbc
00000260: ba1c 203f f3ff 163f bac0 1d3d 849a 27bf
00000270: 87bd 57bd 4a7a 403e e673 24be 7dbe 02bf
00000280: 1d86 06be 1f8e 523f 9efe f53d 9c47 16bf
00000290: 4b95 103f 4dbc cc3e be69 4ebf 6311 ba3e
000002a0: 15ab bc3e 6531 07bf cb52 fe3d 016f 5f3d
000002b0: 7a20 31bf 6c20 143f 6f38 0c3f d29e 69bf
000002c0: 787e c73e b8ce b83e ac1e 8bbe 7047 87bd
000002d0: 057d 363e 91b6 12bf 4549 ab3e 71c1 ee3e
000002e0: d042 40bf 3b6c d33e 17b5 8e3e 9313 a2be
000002f0: ac07 cd3d 668c 713e 3d10 e63e a54e d93e
00000300: 7825 f5be ea12 09be d71c b13d e616 81be
00000310: 15c8 7bbe bc72 7dbe a850 d33d 46a3 ad3e
00000320: 7407 963e a3c0 01bf ccf0 d5bd bafc 5f3e
00000330: d6a0 643d 8ff8 a2be 1bef 9abe 5dc3 483e
00000340: 774d bc3e beb6 683e e339 74bd aadb 69be
00000350: a27c 4b3d 4ae1 31be e7ac d8bd 9b74 4f3c
00000360: 7770 82be ea1d a6be 9d9c 58bd c979 bebe
00000370: f924 9dbe 7bd2 81bd 8f5d dabd fccd 253e
00000380: a7c8 0a3c 019c 47be 18df fdbb d07c 7bbc
00000390: ccc1 553e 391f ab3e e6f6 e23e 3c78 2d3e
000003a0: 5201 ea3e fb70 853e 996a 7abe 304e 6cbe
000003b0: b585 69bd e652 89be a737 4d3d 56be 6b3e
000003c0: e7bf 023e c741 3f3d e8bd 093e 2938 453f
000003d0: 2d73 763f 55bc 293f 9a55 7ebc b301 a73d
000003e0: 494c ccbc 562f a7be c62a 84bd 3eeb 55be
000003f0: f722 813e 0f23 413e 0d44 23bd 9b2c 8ebe

conv1.bias f4 [16]
0.14192794 0.002024755 0.03371088 0.71361226 -0.4339481 0.020939026 0.014843856 0.019356241
0.3614278 0.014659275 0.024897516 -0.08091077 -0.064682476 0.12761515 -0.14697655 0.20648058
00000000: 8f55 113e c1b1 043b 6b14 0a3d 4baf 363f
00000010: 722e debe 5288 ab3c a533 733c fb90 9e3c
00000020: 110d b93e 752d 703c e0f5 cb3c 8cb4 a5bd
00000030: 3f78 84bd 8cad 023e 0581 16be a56f 533e

conv2.weight f4 [32, 16, 3, 3]
0.15823214 0.093385436 0.099615395 0.15171488 0.16574988 0.16857678 0.2575213 0.22300012
0.19769685 0.009611374 -0.0023498947 -0.037205804 0.0021181866 -0.02952712 0.034964092 -0.029853059
-0.0010909484 0.037730586 -0.016294895 0.024683602 0.011405592 -0.19505723 -0.22176398 -0.18220882
-0.09437249 -0.3252941 -0.14239398 0.15906316 0.024747774 0.06392153 0.010910735 -0.032314304
-0.0036477523 0.00020000213 -0.0017024151 0.060212072 0.14746636 0.022224993 0.18733929 -0.09524061
-0.08592806 0.012404583 0.054979574 -0.0008156687 0.102991484 -0.016208097 0.01905376 0.03731849
0.09793941 -0.019169455 0.016069388 0.05094115 -0.03137882 0.034133106 0.07561809 0.13528918
0.20680624 0.29214054 0.4801997 0.3024338 0.40049198 0.3869662 0.33113173 -0.15352459
-0.112480246 0.049297463 -0.22186716 -0.20740193 -0.14150551 -0.16137207 -0.09506485 -0.09923162
-0.019880729 -0.04130646 -0.08149148 -0.04265992 -0.1870665 -0.010160176 -0.007450122 -0.012298221
0.058909707 0.08784665 0.12212862 0.092460915 -0.11701408 -0.32131562 -0.16120648 -0.1345123
-0.27895638 -0.15524079 0.09318761 0.026233057 -0.024361882 0.09730956 0.15480968 0.12832607
0.15635267 0.15218216 0.15421523 0.031718735 -0.16971356 -0.062303632 -0.098121606 -0.20287715
-0.11275071 -0.14246368 -0.052607317 0.025877839 0.0045537213 -0.01957747 0.09448019 0.07178352
-0.07966184 0.004626558 -0.067541376 -0.14614274 0.031327352 -0.10636914 -0.20219877 -0.16307645
0.055802505 0.016829776 0.01358773 0.00420861 -0.04081794 0.05888587 -0.010273843 -0.08359529
-0.019384554 -0.1330703 -0.16724962 -0.11205682 -0.020067435 -0.14782603 0.020011142 0.07566589
0.0068365936 0.009685881 0.17574286 0.13589548 0.049209844 0.18355887 0.18654954 0.18269525
-0.0070311995 0.05406201 -0.024854355 0.005369766 -0.12180982 -0.1441888 -0.039950598 -0.060540613
-0.12189262 -0.05481079 0.12938292 0.13675274 0.1716514 0.14642553 0.04371605 -0.022636442
-0.10230822 -0.07431562 0.09353734 0.1929036 0.06709743 -0.0023865544 -0.006125117 -0.059940703
0.042150054 0.011181844 -0.11180125 -0.034671392 -0.07965416 -0.09200491 -0.049041767 0.0817525
0.03826629 0.11309651 -0.0060628406 -0.02053885 -0.017931318 -0.048152115 -0.017384041 -0.06654692
-0.056829855 -0.053196132 -0.09648601 0.01895126 0.07847453 0.18936856 0.08560715 0.076604255
0.0596729 0.31020805 0.20028101 0.2103415 0.10093882 0.13872713 0.0026020536 -0.021488465
-0.022594532 0.106662735 0.010469967 -0.107809946 -0.053863343 -0.017287612 0.015010695 0.05780618
-0.060035326 0.037173454 0.06840319 0.18617363 0.010357291 0.08145377 0.063535154 -0.0024089043
-0.13794345 -0.060881946 -0.11389328 -0.09869085 -0.15977418 -0.016797453 -0.035260595 -0.036747303
0.0628542 0.16505368 -0.037281137 0.15753235 0.2073933 0.25303495 0.097391084 -0.09774413
-0.075412236 0.06116924 0.03438432 0.010419936 0.13528201 -0.084542654 0.09623891 0.10245859
0.06747349 -0.05289637 -0.020829014 0.0029818567 -0.08761268 -0.017071424 -0.04219901 -0.08399189
-0.058666654 -0.009815795 -0.067574404 -0.03944904 -0.046189092 0.03308941 0.01960314 0.039974768
00000000: 9b07 223e dd40 bf3d 2803 cc3d 255b 1b3e
00000010: 56ba 293e 649f 2c3e d5d9 833e 255a 643e
00000020: 0b71 4a3e 0679 1d3c b100 1abb 1d65 18bd
00000030: 46d1 0a3b dce2 f1bc 8236 0f3d 678e f4bc
00000040: 27fe 8eba 638b 1a3d df7c 85bc 4435 ca3c
00000050: 85de 3a3c 15bd 47be 1916 63be f394 3abe
00000060: 5d46 c1bd f38c a6be bacf 11be 74e1 223e
00000070: d8bb ca3c 4be9 823d f1c2 323c 015c 04bd
00000080: 210f 6fbb aab7 5139 9223 dfba efa0 763d
00000090: 6c01 173e 3011 b63c dfd5 3f3e 820d c3bd
000000a0: 0dfb afbd 983c 4b3c 4332 613d 9ad2 55ba
000000b0: 33ed d23d d8c6 84bc a216 9c3c 46db 183d
000000c0: 7594 c83d 4309 9dbc f3a3 833c aba7 503d
000000d0: 1487 00bd 28cf 0b3d a8dd 9a3d 3f89 0a3e
000000e0: 04c5 533e 7293 953e bcdc f53e 9ad8 9a3e
000000f0: 490d cd3e 6f20 c63e 198a a93e 8d35 1dbe
00000100: 0b5c e6bd 23ec 493d 2531 63be 2c61 54be
00000110: d2e6 10be b83e 25be 5cb1 c2bd f339 cbbd
00000120: e9dc a2bc f630 29bd 01e5 a6bd 2bbc 2ebd
00000130: 5c8e 3fbe de76 26bc 2720 f4bb 7a7e 49bc
00000140: 4e4b 713d f2e8 b33d 921e fa3d 265c bd3d
00000150: 14a5 efbd 7b83 a4be 5013 25be 98bd 09be
00000160: 5fd3 8ebe 71f7 1ebe 25d9 be3d b5e6 d63c
00000170: 9292 c7bc 3c4a c73d 6e86 1e3e e967 033e
00000180: ea1a 203e a4d5 1b3e 99ea 1d3e 81eb 013d
00000190: 64c9 2dbe 1832 7fbd fbf3 c8bd 07bf 4fbe
000001a0: d8e9 e6bd 00e2 11be c57a 57bd c3fd d33c
000001b0: 6237 953b ee60 a0bc d47e c13d 3d03 933d
000001c0: bf25 a3bd 629a 973b 2253 8abd 71a6 15be
000001d0: 1c51 003d 10d8 d9bd 320d 4fbe 83fd 26be
000001e0: 2b91 643d 99de 893c 129f 5e3c 61e8 893b
000001f0: b630 27bd 4f32 713d 9f53 28bc 0234 abbd
00000200: 5bcc 9ebc 9543 08be 7c43 2bbe 0c7e e5bd
00000210: 7664 a4bc b55f 17be 68ee a33c b8f6 9a3d
00000220: 8105 e03b 88b1 1e3c f0f5 333e 2f28 0b3e
00000230: 4390 493d dbf6 3b3e d806 3f3e 7714 3b3e
00000240: fa65 e6bb 2070 5d3d 5c9b cbbc ddf4 af3b
00000250: 6d77 f9bd 3ba6 13be 3da3 23bd 6ff9 77bd
00000260: d7a2 f9bd 4781 60bd f57c 043e e908 0c3e
00000270: 62c5 2f3e 93f0 153e 9a0f 333d 0f70 b9bc
00000280: f986 d1bd ca32 98bd 8190 bf3d 8588 453e
00000290: 616a 893d bd67 1cbb 35b5 c8bb 6284 75bd
000002a0: 89a5 2c3d 0e34 373c 0ef8 e4bd 9703 0ebd
000002b0: b821 a3bd 126d bcbd 05e0 48bd db6d a73d
000002c0: 1dbd 1c3d 259f e73d cbaa c6bb 1741 a8bc
000002d0: b3e4 92bc 273b 45bd fa68 8ebc c049 88bd
000002e0: 6cc6 68bd 30e4 59bd 759a c5bd ac3f 9b3c
000002f0: 41b7 a03d d5e9 413e cd52 af3d b1e2 9c3d
00000300: 926b 743d 97d3 9e3e 7716 4d3e c363 573e
00000310: 03b9 ce3d 7c0e 0e3e 3787 2a3b 9408 b0bc
00000320: 2b18 b9bc fe71 da3d 398a 2b3c 76cb dcbd
00000330: cf9f 5cbd c09e 8dbc 6bef 753c 2cc6 6c3d
00000340: 9ae7 75bd 3143 183d f916 8c3d 4da4 3e3e
00000350: a1b1 293c 3cd1 a63d b81e 823d b5de 1dbb
00000360: 0c41 0dbe 595f 79bd e140 e9bd 6e1e cabd
00000370: d89b 23be d09a 89bc 6a6d 10bd 5784 16bd
00000380: b4b9 803d d503 293e 1bb4 18bd 2950 213e
00000390: e95e 543e cc8d 813e fa74 c73d 132e c8bd
000003a0: bb71 9abd 998c 7a3d 93d6 0c3d 61b8 2a3c
000003b0: 5e87 0a3e b324 adbd e818 c53d cfd5 d13d
000003c0: 8b2f 8a3d dda9 58bd 9ca1 aabc 416b 433b
000003d0: 476e b3bd 5fd9 8bbc ded8 2cbd f103 acbd
000003e0: 724c 70bd 6ed2 20bc 7364 8abd 5195 21bd
000003f0: c630 3dbd c388 073d c496 a03c 95bc 233d

conv2.bias f4 [32]
-0.019134134 -0.25626516 -0.26543742 -0.15621246 -0.09291814 0.12892705 0.00044438578 0.32523146
-0.32461676 0.15367629 0.034031935 0.022765465 -0.035595123 0.1220519 -0.04979418 -0.12578088
0.046927515 0.12827069 -0.44703108 -0.27157524 -0.059297208 -0.1912391 -0.17879495 -0.48913255
0.79243827 -0.32487878 -0.06264216 -0.01638722 0.66709185 -0.28928176 -0.3053554 0.056034684
00000000: 30bf 9cbc 3035 83be 6ae7 87be 29f6 1fbe
00000010: de4b bebd 7405 043e 73fc e839 bd84 a63e
00000020: 2b34 a6be 515d 1d3e 1265 0b3d a47e ba3c
00000030: 31cc 11bd 59f6 f93d fbf4 4bbd b4cc 00be
00000040: 1137 403d 6459 033e 42e1 e4be e90b 8bbe
00000050: a1e1 72bd 2fd4 43be 0616 37be 956f fabe
00000060: 3cdd 4a3f 8356 a6be 884a 80bd 7e3e 86bc
00000070: 88c6 2a3f bd1c 94be 8b57 9cbe a084 653d

conv3.weight f4 [64, 32, 3, 3]
0.054950997 0.0969408 0.18907738 0.088639274 0.104183234 0.1455152 -0.11087862 -0.14467545
-0.116619796 -0.068446 -0.15261762 -0.123706 0.05597561 0.047458574 0.08322553 0.04036609
0.08864066 0.16328177 -0.08786888 -0.036082245 -0.026564108 -0.0020478913 0.074129164 0.05357541
-0.05035272 -0.01543024 -0.07718851 -0.0644846 -0.01607241 0.031976014 -0.0037468784 0.006808306
0.034756497 -0.02967242 -0.017066414 0.060702473 -0.062139846 0.024806645 0.010889403 0.020888746
-0.011488988 0.020744238 0.013593612 -0.062609375 -0.014056719 0.11667364 -0.0773277 -0.05170185
0.18126701 0.08576879 -0.08562379 0.14324054 0.05932477 -0.04288686 0.08079761 0.012278696
-0.02736559 0.017671248 -0.0013714017 0.0139406985 -0.042472478 0.06262477 0.072844505 -0.016464133
-0.07541066 -0.14358605 -0.08530469 -0.011215146 -0.006869632 0.04679723 -0.0673087 0.036914967
-0.041951977 -0.04258929 -0.017765872 0.022859534 -0.040068354 -0.06779062 0.011961349 -0.08857866
-1.1158844e-05 0.046913873 -0.025585134 -0.13545483 0.011100148 -0.012473602 -0.1221175 0.049433768
0.014982831 0.034532614 -0.08700291 -0.08260301 0.008598947 0.0036129935 -0.060869467 0.031703237
-0.03181574 -0.0034417135 -0.021643927 0.027034594 -0.14893447 -0.06401727 -0.051496647 -0.07266908
0.03808462 -0.005285708 0.012391327 0.018751552 -0.015433618 -0.079026826 -0.058011174 0.0015574961
0.021623736 0.009576453 0.0023835448 -0.027067374 0.113776475 0.04823537 -0.10740322 -0.008924388
-0.06383897 -0.07663679 -0.0592924 0.07946045 0.060603514 -0.053120453 0.09363851 -0.031678703
-0.005090054 0.06280603 0.019296968 0.032603614 0.07170314 0.009033126 0.0126596885 -0.06830038
-0.015306112 -0.08555142 0.045049697 0.06630977 0.05214977 -0.04703782 0.052532878 -0.07309959
-0.041918613 -0.11733036 -0.028740732 0.0818157 0.07456894 0.12611967 0.069675736 0.08857373
0.11887667 -0.093185134 -0.16281238 -0.06779693 -0.0646325 -0.1187759 0.10536975 -0.12930419
-0.07769268 0.036835697 -0.026322013 -0.032245573 0.08258196 0.057322472 0.10205071 0.059721157
-0.007202442 -0.064233355 -0.04585237 -0.06415607 -0.17723985 -0.057791453 0.01610979 0.031032315
0.04075852 0.07724529 0.094018795 -0.0061107986 -0.04217807 0.008336877 0.033100694 0.08647852
0.032420605 0.07865487 -0.0331782 0.043962676 -0.061541542 -0.020613099 -0.11385522 -0.041517075
0.017818011 0.05780946 0.07486153 -0.002045226 0.04175721 0.042930458 -0.00814801 -0.109888606
-0.071456954 0.0002851208 0.042818896 -0.03896471 0.052183867 0.013101113 0.07854849 -0.08714244
-0.26650602 -0.12753429 0.03139261 -0.06610343 -0.013351175 0.01730273 0.053218123 -0.0044280114
-0.06722477 -0.067134075 0.011777692 -0.014394868 -0.07371989 0.026074653 0.0757356 -0.014575751
0.006001075 -0.039919052 -0.08224051 -0.0595956 -0.03059227 -0.107247025 0.008563352 -0.08173814
-0.03921367 -0.054778717 -0.11654616 -0.17049526 -0.19269978 -0.071541406 -0.14168757 -0.18947612
-0.05663083 -0.044618785 -0.07277016 -0.081675895 -0.080815256 -0.040692702 -0.06815663 -0.06900313
-0.019638982 -0.020701047 0.061192263 0.07921394 -0.03990253 0.01611253 0.012668381 -0.05786151
00000000: 4c14 613d e688 c63d 809d 413e 8288 b53d
00000010: 055e d53d f001 153e 5414 e3bd cd25 14be
00000020: 5cd6 eebd 6b2d 8cbd cb47 1cbe 9259 fdbd
00000030: ae46 653d ec63 423d 2672 aa3d ea56 253d
00000040: 3c89 b53d 5633 273e 99f4 b3bd faca 13bd
00000050: f99c d9bc ea35 06bb 08d1 973d e471 5b3d
00000060: a73e 4ebd 1ecf 7cbc 0215 9ebd 8110 84bd
00000070: 49aa 83bc 48f9 023d 308e 75bb 3618 df3b
00000080: d45c 0e3d 9313 f3bc ddce 8bbc 28a3 783d
00000090: 5a86 7ebd 4e37 cb3c 7769 323c e01e ab3c
000000a0: 4f3c 3cbc d2ef a93c beb7 5e3c 5839 80bd
000000b0: 274e 66bc 97f2 ee3d fc5d 9ebd 52c5 53bd
000000c0: 0f9e 393e 8ca7 af3d 875b afbd a6ad 123e
000000d0: 88fe 723d 22aa 2fbd 3879 a53d 952c 493c
000000e0: cd2d e0bc 4bc3 903c 9bc0 b3ba 8767 643c
000000f0: 9ff7 2dbd 6a41 803d 802f 953d cadf 86bc
00000100: e770 9abd 3908 13be 3ab4 aebd bbbf 37bc
00000110: a61a e1bb 74ae 3f3d 25d9 89bd 2634 173d
00000120: d6d5 2bbd 1b72 2ebd bc89 91bc eb43 bb3c
00000130: b71e 24bd cfd5 8abd 89f9 433c ba68 b5bd
00000140: df36 3bb7 c328 403d ea97 d1bc acb4 0abe
00000150: 65dd 353c 145e 4cbc bd18 fabd 107b 4a3d
00000160: 8c7a 753c 1272 0d3d 952e b2bd c42b a9bd
00000170: 99e2 0c3c f9c7 6c3b 4352 79bd 41db 013d
00000180: 3951 02bd 5f8e 61bb 9b4e b1bc a777 dd3c
00000190: 4782 18be 7d1b 83bd 26ee 52bd 87d3 94bd
000001a0: 9efe 1b3d bb33 adbb fe04 4b3c db9c 993c
000001b0: 49dd 7cbc d1d8 a1bd 209d 6dbd e624 cc3a
000001c0: 4324 b13c 8ee6 1c3c 3f35 1c3b 66bc ddbc
000001d0: a403 e93d 7492 453d 38f6 dbbd 9937 12bc
000001e0: 02be 82bd c0f3 9cbd 96dc 72bd 29bc a23d
000001f0: 643b 783d d594 59bd 8cc5 bf3d 87c1 01bd
00000200: 78ca a6bb 73a0 803d ad14 9e3c 5e8b 053d
00000210: 19d9 923d adff 133c 956a 4f3c 12e1 8bbd
00000220: 7dc6 7abc 9535 afbd 0886 383d 6bcd 873d
00000230: ff9a 553d bbaa 40bd b72c 573d 3db5 95bd
00000240: dab2 2bbd e64a f0bd af71 ebbc fd8e a73d
00000250: 9ab7 983d 8425 013e 27b2 8e3d 2566 b53d
00000260: 9d75 f33d d9d7 bebd 4ab8 26be 1ed9 8abd
00000270: 0b5e 84bd c740 f3bd 18cc d73d 5168 04be
00000280: 571d 9fbd 07e1 163d 43a1 d7bc ef13 04bd
00000290: bb20 a93d f8ca 6a3d f6ff d03d 2c9e 743d
000002a0: 7602 ecbb c78c 83bd b2cf 3bbd 4264 83bd
000002b0: 5d7e 35be bbb6 6cbd aef8 833c 7b37 fe3c
000002c0: 68f2 263d c732 9e3d ed8c c03d 183d c8bb
000002d0: e9c2 2cbd 6697 083c 9894 073d a61b b13d
000002e0: 78cb 043d ce15 a13d dde5 07bd 3512 343d
000002f0: fc12 7cbd cddc a8bc ed2c e9bd cf0d 2abd
00000300: 14f7 913c 9dc9 6c3d 0051 993d 3309 06bb
00000310: 9c09 2b3d d9d7 2f3d 3b7f 05bc 470d e1bd
00000320: 0658 92bd 447c 9539 de62 2f3d 7699 1fbd
00000330: c0be 553d 0da6 563c 08de a03d bc77 b2bd
00000340: 7a73 88be 5998 02be 8a95 003d 3c61 87bd
00000350: e3be 5abc 74be 8d3c 3ffb 593d da18 91bb
00000360: 24ad 89bd 977d 89bd 38f7 403c 74d8 6bbc
00000370: 74fa 96bd 839a d53c 441b 9b3d 21cf 6ebc
00000380: aaa4 c43b 2982 23bd b66d a8bd 841a 74bd
00000390: a49c fabc 54a4 dbbd 4d4d 0c3c 5366 a7bd
000003a0: 839e 20bd a65f 60bd c1af eebd 4f96 2ebe
000003b0: 1753 45be 4d84 92bd 8c16 11be 0706 42be
000003c0: bbf5 67bd 30c2 36bd 8608 95bd b145 a7bd
000003d0: 7882 a5bd 64ad 26bd b495 8bbd 8351 8dbd
000003e0: eee1 a0bc 3e95 a9bc bda4 7a3d eb3a a23d
000003f0: d670 23bd 6dfe 833c 0b8f 4f3c 3100 6dbd

conv3.bias f4 [64]
0.13579905 -0.0640476 0.046330318 -0.019601174 0.089847684 -0.13927644 -0.171256 0.05485093
-0.23913038 -0.02450152 -0.1249 0.29119983 -0.06862654 -0.19128194 0.04587042 0.15453613
0.29662222 0.10180554 0.124191985 -0.061477296 -0.23922122 0.19238251 -0.34062582 0.29127407
-0.054578938 0.1933015 -0.07504506 -0.13830788 0.11221791 0.08562831 -0.069550425 -0.03273163
-0.08877349 0.030243745 -0.049302608 -0.034051098 -0.038265947 0.252785 -0.04029066 0.041111697
-0.12720545 -0.14680356 0.22673772 -0.26097926 -0.020279562 0.012255506 -0.011314103 0.04542339
0.27452424 -0.117581934 0.045161966 0.15634422 0.20757638 -0.15865879 -0.13762975 0.16331516
0.29596922 -0.0730494 -0.046025775 0.29048187 -0.011627344 0.007712708 0.105101824 -0.20375517
00000000: e80e 0b3e 632b 83bd dcc4 3d3d a492 a0bc
00000010: 1002 b83d 7c9e 0ebe bc5d 2fbe 5eab 603d
00000020: 98de 74be 69b7 c8bc 92cb ffbd 2518 953e
00000030: 128c 8cbd 6adf 43be 9fe2 3b3d b83e 1e3e
00000040: dede 973e 6c7f d03d 5e58 fe3d 9ecf 7bbd
00000050: 68f6 74be ecff 443e 8266 aebe e021 953e
00000060: 2a8e 5fbd d4f0 453e 39b1 99bd 95a0 0dbe
00000070: 81d2 e53d e55d af3d 7470 8ebd 9a11 06bd
00000080: e0ce b5bd bbc1 f73c 88f1 49bd 2a79 0bbd
00000090: c1bc 1cbd 096d 813e d207 25bd bd64 283d
000000a0: 2542 02be ac53 16be ef2d 683e 139f 85be
000000b0: 5321 a6bc 51cb 483c ca5e 39bc e00d 3a3d
000000c0: 718e 8c3e ccce f0bd c1fb 383d b318 203e
000000d0: e78e 543e 7377 22be d0ee 0cbe 173c 273e
000000e0: 4789 973e ec9a 95bd 8685 3cbd 0aba 943e
000000f0: 9e80 3ebc e2ba fc3b a03f d73d 32a5 50be

fc1.weight f4 [128, 1024]
0.030175127 -0.013392182 0.0046116407 0.024284916 0.0060513155 0.011433767 -0.022522809 -0.019564556
-0.0032731781 -0.090859935 -0.08486156 -0.012030106 -0.011219848 -0.03656566 -0.030071424 -0.04410112
-0.042389434 -0.018498702 -0.058809996 0.007756245 0.03332207 0.01787781 -0.041142605 0.019787667
0.014283093 -0.07414073 -0.027339514 0.021190213 -0.0044361004 -0.046300802 0.0015136164 -0.01753349
0.021277476 0.006388343 0.0118534975 0.023152744 -0.027260978 -0.06263998 -0.022154285 0.010776016
0.026909336 -0.03075058 -0.005007862 0.0011825021 4.7211092e-06 0.016621292 -0.00031555578 0.025469003
-0.007853907 -0.0033694764 -0.056708366 -0.01772706 0.0063902126 0.060603317 0.025512947 0.011167215
0.08824106 0.06683868 0.06773293 0.024664799 0.024909798 0.017907841 0.02065383 -0.0003032242
0.036388863 0.009734196 -0.013058799 0.04653999 0.07655936 -0.0131818345 -0.014123453 0.03778469
0.040685352 -0.043807726 -0.0059317043 -0.025834525 0.041412823 0.011336575 0.003613347 0.0064838
-0.024173979 -0.000865036 -0.025658807 0.00048477357 -0.033365123 -0.041098718 -0.06374718 0.014430654
0.03970508 -0.003323408 -0.024474697 0.013605411 0.006576164 0.055074017 0.07398274 0.00700778
-0.018464664 -0.010481751 -0.035612814 -0.034840167 0.040749457 0.0008070708 0.02754385 -0.017830161
0.03209473 -0.004449637 0.03456619 -0.046424765 -0.038956117 -0.0057447487 -0.017041245 -0.016966352
-0.0068740575 0.006376481 0.032887843 0.016779969 -0.028091589 -0.010677378 0.0022506274 0.019301154
-0.019736324 -0.016150534 0.03526955 0.018355448 -0.018473757 -0.0041360753 0.020214204 0.025582643
0.0032109856 -0.035118353 -0.0075425287 0.016747195 0.0054907883 -0.038065296 -0.035812035 0.017920485
0.0033297122 0.0030757447 -0.071126476 0.020297889 -0.00077831524 -0.051202364 -0.03625452 0.030630345
0.038214996 -0.031661186 0.013704322 -0.00074496155 -0.003385448 -0.004130851 0.01661827 -0.004976848
0.0029483887 -0.03517698 0.00828134 -0.01517392 0.029405292 -0.009301592 -0.021893483 0.008679707
0.015235602 0.029859731 0.026482454 -0.008353899 -0.0006796588 0.007782357 0.043551844 0.025838349
0.008764879 -0.05127289 -0.002620434 -0.034336574 0.024177633 -0.042283114 -0.032471675 -0.02079965
-0.017909275 0.027864635 0.059523992 0.027072543 -0.03304098 0.013545647 -0.007336745 -0.02040682
0.003474349 -0.022127276 0.044986766 0.02513126 -0.0374615 0.009886003 0.038764972 0.0036447134
0.0033029867 -0.020417824 -0.01772391 0.025084864 -0.00067875447 0.091478296 0.051500067 0.016624182
0.007308102 0.0062016635 -0.026739469 -0.025302164 0.023270924 0.017767774 -0.03556709 0.008489374
0.015020617 -0.04631178 -0.04524981 -0.03750924 0.04592226 -0.028002715 -0.043662082 0.035002533
0.026546115 -0.048605494 0.0116540445 -0.023524098 -0.022074306 -0.052174896 -0.03824492 -0.038789928
0.0010890496 -0.006116047 -0.06485819 -0.006318353 0.006520995 0.0525457 -0.02936909 0.083641425
0.03257918 0.027828747 -0.033397786 -0.005766497 -0.03421261 -0.03333771 -0.02242162 -0.0045626364
0.011868009 -0.055405393 -0.03537584 0.02948764 -0.014274506 -0.09774011 -0.020991739 0.007316781
-0.03967305 -0.019349935 -0.035877384 -0.015039872 -0.0059063216 0.014674665 -0.00033357093 -0.015036024
00000000: d431 f73c e26a 5bbc 3f1d 973b 29f1 c63c
00000010: 1d4a c63b b254 3b3c c181 b8bc d945 a0bc
00000020: d182 56bb c614 babd e6cb adbd ec19 45bc
00000030: 74d3 37bc e0c5 15bd 5958 f6bc 60a3 34bd
00000040: 8ba0 2dbd 978a 97bc c0e2 70bd 1928 fe3b
00000050: b97c 083d 7c74 923c 2685 28bd bf19 a23c
00000060: a203 6a3c 18d7 97bd 1ef7 dfbc 1997 ad3c
00000070: b55c 91bb e9a5 3dbd 8a64 c63a 65a2 8fbc
00000080: 1a4e ae3c 4e55 d13b 2c35 423c d3aa bd3c
00000090: 6a52 dfbc 6449 80bd e77c b5bc e38d 303c
000000a0: f870 dc3c a4e8 fbbc fe18 a4bb 30fe 9a3a
000000b0: 056a 9e36 6029 883c 2e71 a5b9 5fa4 d03c
000000c0: acad 00bc 6fd2 5cbb 0847 68bd 5738 91bc
000000d0: fd64 d13b 2f3b 783d 8700 d13c b2f6 363c
000000e0: bbb7 b43d b8e2 883d 90b7 8a3d d50d ca3c
000000f0: a20f cc3c 77b3 923c 3932 a93c 10fa 9eb9
00000100: 7d0c 153d 2d7c 1f3c 93f4 55bc b7a0 3e3d
00000110: 27cb 9c3d 9ff8 57bc 0e66 67bc 1ec4 1a3d
00000120: afa5 263d bb6f 33bd be5e c2bb eda2 d3bc
00000130: 7ea0 293d 0bbd 393c e7cd 6c3b 0e76 d43b
00000140: 8208 c6bc 95c3 62ba 6b32 d2bc 3529 fe39
00000150: dea9 08bd 2157 28bd e28d 82bd 8d6e 6c3c
00000160: cba1 223d 89cd 59bb 297f c8bc 3be9 5e3c
00000170: dd7c d73b 4b95 613d 4384 973d 85a1 e53b
00000180: 3543 97bc a6bb 2bbc bede 11bd 90b4 0ebd
00000190: e7e8 263d 9b91 533a a4a3 e13c 8f10 92bc
000001a0: c375 033d 43ce 91bb 4795 0d3d e527 3ebd
000001b0: 7390 1fbd 723e bcbb 159a 8bbc 05fd 8abc
000001c0: c63f e1bb cdf1 d03b 67b5 063d 2576 893c
000001d0: 5520 e6bc 2bf0 2ebc 437f 133b 741d 9e3c
000001e0: 12ae a1bc 204e 84bc ce76 103d 2a5e 963c
000001f0: 4756 97bc ea87 87bb 4298 a53c b192 d13c
00000200: 666f 523b 43d8 0fbd 5127 f7bb 6a31 893c
00000210: 12ec b33b 5bea 1bbd a4af 12bd fbcd 923c
00000220: 4d37 5a3b 6f92 493b c2aa 91bd c247 a63c
00000230: da07 4cba 92b9 51bd 9f7f 14bd 7dec fa3c
00000240: 5487 1c3d 29af 01bd 1888 603c 8649 43ba
00000250: 64de 5dbb 175c 87bb 0a23 883c d414 a3bb
00000260: c139 413b bd15 10bd 75ae 073c 099c 78bc
00000270: 5ee3 f03c b465 18bc f659 b3bc 5435 0e3c
00000280: bf9e 793c 659c f43c bbf1 d83c cbde 08bc
00000290: 212b 32ba 2403 ff3b 6b63 323d f2aa d33c
000002a0: 919a 0f3c 8603 52bd 96bb 2bbb 82a4 0cbd
000002b0: 2c10 c63c 0f31 2dbd 0501 05bd 0764 aabc
000002c0: 79b6 92bc 6044 e43c 6ecf 733d 3dc7 dd3c
000002d0: fb55 07bd 90ee 5d3c 1469 f0bb 342c a7bc
000002e0: e7b1 633b 4344 b5bc 0b44 383d 12e0 cd3c
000002f0: 3b71 19bd e7f8 213c 05c8 1e3d 25dc 6e3b
00000300: ec76 583b 4843 a7bc bc31 91bc c67e cd3c
00000310: 71ee 31ba f958 bb3d bcf1 523d 702f 883c
00000320: ce78 ef3b 5337 cb3b bb0c dbbc 7c46 cfbc
00000330: aaa2 be3c b98d 913c ccae 11bd 0417 0b3c
00000340: 0919 763c 6cb1 3dbd dd57 39bd 4aa3 19bd
00000350: fb18 3c3d f365 e5bc 03d7 32bd d15e 0f3d
00000360: 3d77 d93c 8e16 47bd 9bf0 3e3c 9cb5 c0bc
00000370: 2dd5 b4bc 58b5 55bd b5a6 1cbd 30e2 1ebd
00000380: 71be 8e3a 1f69 c8bb 5fd4 84bd 300a cfbb
00000390: 12ae d53b 293a 573d 7297 f0bc 324c ab3d
000003a0: bf71 053d 1df9 e33c 1ecc 08bd e2f4 bcbb
000003b0: 8622 0cbd 1f8d 08bd 8cad b7bc 2b82 95bb
000003c0: 0a72 423c c4f0 62bd 42e6 10bd 1090 f13c
000003d0: 9edf 69bc f72b c8bd def6 abbc 9cc1 ef3b
000003e0: 3580 22bd c183 9ebc 2af4 12bd cc69 76bc
000003f0: d189 c1bb 026e 703c 22e3 aeb9 a859 76bc

fc1.bias f4 [128]
0.051560774 -0.0035722582 0.03904373 0.0069047543 -0.01570031 -0.021085136 -0.0021175465 -0.010416598
0.020820884 -0.02914726 0.08762561 0.004035891 -0.0023643556 -0.03174696 0.030569507 -0.042393144
0.036235727 0.11120371 -0.107312076 0.01191802 0.005133881 0.07332444 0.0072674495 0.06280848
-0.011694051 0.035720643 -0.011652838 -0.021660112 -0.014506342 0.014379212 -0.041629054 0.1327781
0.08092061 -0.0007366573 -0.019010892 -0.009540056 -0.042443823 0.0027752668 -0.024358729 -0.035537347
-0.039446503 0.047573462 -0.010988998 -0.00718312 -0.040109348 -0.00036308888 0.036217 0.088074744
0.082915716 0.03081014 -0.050490137 -0.024789209 0.08939295 -0.025915189 -0.06410563 0.00050948403
0.10417984 0.041130412 0.049562056 0.006896749 0.019532552 0.096512526 -0.005445512 0.006439562
0.051298674 -0.04460037 0.098175235 -0.026912361 -0.0002867176 0.08055595 -0.014745052 -0.014678217
-0.09255347 0.012876513 0.09885131 0.12755509 -0.010561042 0.019128956 -0.055331964 0.0011621697
0.12520246 0.04042245 0.13210891 0.03840161 0.03144107 -0.030660946 0.0077759754 -0.013999759
0.03163709 0.08251023 -0.04056656 0.07635657 0.010648291 0.006730956 -0.02025836 -0.0055965
0.015034831 -0.03840392 0.07171129 0.050426725 -0.0068484363 -0.03248512 -0.05599115 0.04935634
-0.007972452 0.12121898 -0.0256046 -0.0034765278 0.074170865 0.04633001 0.038258642 -0.07435262
-0.14453764 -0.03419005 0.014809865 0.042052243 0.091480926 0.10996106 0.06154427 0.20107242
-0.017165614 -0.002785952 -0.028077358 0.08179661 0.047359467 0.10873737 -0.0035825302 0.0298456
00000000: 6431 533d 8c1c 6abb 51ec 1f3d 4741 e23b
00000010: f09d 80bc bcba acbc 89c6 0abb 61aa 2abc
00000020: 8f90 aa3c 3cc6 eebc 0e75 b33d 823f 843b
00000030: 4ef3 1abb 1a09 02bd e76c fa3c 6fa4 2dbd
00000040: ea6b 143d c5be e33d 6fc6 dbbd cd43 433c
00000050: 1d3a a83b 202b 963d c923 ee3b bba1 803d
00000060: 6898 3fbc cf4f 123d 8ceb 3ebc 8c70 b1bc
00000070: 02ac 6dbc c996 6b3c 3a83 2abd fbf6 073e
00000080: b4b9 a53d 3c1c 41ba bbbc 9bbc e54d 1cbc
00000090: 93d9 2dbd 40e1 353b f58b c7bc 9c8f 11bd
000000a0: a892 21bd 64dc 423d 330b 34bc 6160 ebbb
000000b0: b349 24bd f75c beb9 4758 143d 8860 b43d
000000c0: b7cf a93d 8c65 fc3c bfce 4ebd bd12 cbbc
000000d0: a713 b73d 174c d4bc d049 83bd e58e 053a
000000e0: 3d5c d53d 5d78 283d 9501 4b3d 20fe e13b
000000f0: bb02 a03c 5ca8 c53d 4470 b2bb f602 d33b
00000100: 8f1e 523d e1ae 36bd 1910 c93d 5077 dcbc
00000110: 9652 96b9 85fa a43d 3b95 71bc e77c 70bc
00000120: ac8c bdbd 03f8 523c 8e72 ca3d cd9d 023e
00000130: 3908 2dbc 54b4 9c3c c5a3 62bd f253 983a
00000140: 1335 003e 0392 253d 8f47 073e 024b 1d3d
00000150: 5ac8 003d aa2c fbbc 9ccd fe3b 3f5f 65bc
00000160: e595 013d 20fb a83d 1f29 26bd d560 9c3d
00000170: 2b76 2e3c 5a8f dc3b dcf4 a5bc d862 b7bb
00000180: a754 763c 6e4d 1dbd 5edd 923d 418c 4e3d
00000190: d968 e0bb 1e0f 05bd fa56 65bd e029 4a3d
000001a0: e39e 02bc a841 f83d bdc0 d1bc 75d6 63bb
000001b0: e5e6 973d 89c4 3d3d 18b5 1c3d 3046 98bd
000001c0: ad01 14be de0a 0cbd 13a5 723c f93e 2c3d
000001d0: 5a5a bb3d 4433 e13d d815 7c3d eee5 4d3e
000001e0: e79e 8cbc 8594 36bb 7d02 e6bc fb84 a73d
000001f0: 00fc 413d b3b1 de3d e2c8 6abb c27e f43c

fc2.weight f4 [64, 128]
0.19823924 -0.014307677 -0.08109881 0.07281261 -0.0035573735 -0.07849413 -0.016769884 -0.046957392
-0.122092105 -0.015977612 0.0014343662 0.09942719 -0.04109454 0.1504107 0.0290039 -0.07690411
0.13363732 0.029004984 -0.0068010017 0.07618914 -0.06434011 -0.009607699 0.091308214 0.04976493
-0.07527559 -0.19819804 -0.06638993 0.09355848 -0.14109199 -0.057650752 0.047749918 0.054432534
0.054596834 -0.013374955 0.008432754 0.017205779 0.018512167 -0.035518423 0.12653771 -0.025377795
0.07310961 -0.13592346 -0.114807084 0.014928348 0.024456138 -0.0017814059 0.077394396 0.07207901
-0.07969705 0.10440974 0.010530281 -0.12008308 0.08069755 -0.10022428 -0.010106391 -0.0043215523
-0.05487161 -0.085265085 -0.05426273 -0.0027324455 -0.092347056 -0.040867336 -0.042121697 -0.14032076
-0.0520627 -0.10178232 -0.011786245 -0.04553681 -0.04222268 0.20588988 -0.055778272 -0.08234172
0.039505415 0.019554608 0.048021007 -0.033520196 -0.14636739 -0.012559447 -0.09170705 -0.005699979
-0.16182116 0.14740719 0.13843305 0.02507227 0.08442378 -0.06331685 0.02208261 -0.07332189
0.015688488 -0.16222231 -0.065949365 0.24347046 0.006217341 0.10591055 -0.073273554 -0.06495426
0.015982736 -0.0723835 0.13454226 -0.0075363643 -0.07309339 -0.06797632 0.069168545 0.010521049
-0.013861691 -0.010411111 -0.08144028 0.08340201 -0.14687769 -0.063677564 -0.020466046 -0.049607843
0.10067363 -0.06535177 -0.11635783 0.12049948 0.0072254334 0.07969466 0.030025346 0.20710468
0.05644765 -0.050386038 -0.08469121 -0.12008396 -0.095357426 -0.11907423 -0.13264805 -0.0404924
-0.050507296 0.0008723758 0.13814077 -0.019474177 0.03165993 -0.12132585 0.0011635368 -0.00034027384
-0.07380296 -0.027002983 -0.060929 0.021839024 0.05636242 -0.13820629 -0.024488647 -0.013320529
0.01516863 -0.12863176 -0.060713317 0.11015864 0.084640644 -0.010642873 0.09932652 0.013005384
-0.11856827 -0.06596453 -0.037572864 0.14800896 0.17439856 -0.12662847 0.13388306 -0.16465795
0.10071991 0.107918136 0.108525164 0.1258965 -0.06577385 -0.011263047 0.08193817 0.010184524
-0.030761264 0.06876379 0.03551497 0.043080807 -0.013037606 0.065720364 0.09486729 -0.064559974
-0.12316243 0.018594962 0.0026177254 -0.094230495 0.05006825 0.047925033 0.102014594 0.006320648
-0.037211988 -0.0918023 -0.101942025 0.14820853 -0.06001348 0.15476584 -0.062059272 -0.08341302
0.045386806 0.17253242 -0.06306898 -0.0060584936 0.042324375 -0.11170246 0.019039985 -0.022990514
0.06320309 0.011403958 -0.13142306 -0.12579301 -0.08086589 0.06174276 0.097370304 -0.037941124
-0.07881882 -0.06522534 0.0996511 0.08495133 -0.017408885 -0.028839288 0.0067996997 0.033671528
-0.16789635 -0.022627993 0.0425707 -0.10934404 -0.040968716 -0.04842123 -0.03935113 -0.00630416
-0.05514335 -0.07105263 -0.07592646 0.1095231 0.011855034 -0.017985422 0.14186835 -0.09482362
0.029305171 -0.15413696 -0.044127103 -0.022575714 -0.03393485 0.05397503 -0.054593813 0.04514687
0.033234395 0.092548855 0.11954009 0.2497008 0.033842023 0.0031621424 -0.04084367 -0.07171238
-0.066213876 -0.06034949 -0.033490416 0.011312766 0.02672306 -0.1428604 -0.0040667416 0.14198983
00000000: 3aff 4a3e bf6a 6abc 2217 a6bd c71e 953d
00000010: d322 69bb 88c1 a0bd ff60 89bc 6556 40bd
00000020: 6d0b fabd 7be3 82bc 5801 bc3a 7ca0 cb3d
00000030: c052 28bd 4305 1a3e 9699 ed3c e77f 9dbd
00000040: 39d8 083e dc9b ed3c f0da debb 0d09 9c3d
00000050: bfc4 83bd 9c69 1dbc cdff ba3d 50d6 4b3d
00000060: 172a 9abd 6df4 4abe 72f7 87bd 979b bf3d
00000070: 6b7a 10be 3223 6cbd 6b95 433d a6f4 5e3d
00000080: eea0 5f3d a122 5bbc 8929 0a3c 22f3 8c3c
00000090: d4a6 973c c47b 11bd 1a93 013e 18e5 cfbc
000000a0: 7eba 953d 852f 0bbe fa1f ebbd 0896 743c
000000b0: 3d58 c83c 107e e9ba f480 9e3d 299e 933d
000000c0: 3538 a3bd c6d4 d53d 3387 2c3c 1eee f5bd
000000d0: c244 a53d 6342 cdbd 4795 25bc cf9b 8dbb
000000e0: 0ec1 60bd 769f aebd 9942 5ebd d412 33bb
000000f0: 7420 bdbd 8264 27bd cd87 2cbd 3fb0 0fbe
00000100: b33f 55bd 4073 d0bd 181b 41bc ce84 3abd
00000110: b0f1 2cbd ccd4 523e c277 64bd c7a2 a8bd
00000120: 6ed0 213d fc30 a03c adb1 443d 794c 09bd
00000130: 55e1 15be 24c6 4dbc e8d0 bbbd e4c6 babb
00000140: 72b4 25be e9f1 163e 65c1 0d3e 5c64 cd3c
00000150: 60e6 ac3d 44ac 81bd 97e6 b43c c929 96bd
00000160: 2585 803c 9b1d 26be 7610 87bd 5250 793e
00000170: d6ba cb3b a1e7 d83d 7210 96bd bd06 85bd
00000180: 3aee 823c cd3d 94bd 72c5 093e 9bf3 f6bb
00000190: fdb1 95bd 2b37 8bbd 3da8 8d3d 7a60 2c3c
000001a0: 251c 63bc 5d93 2abc 29ca a6bd acce aa3d
000001b0: 1b67 16be 6269 82bd 69a8 a7bc 9831 4bbd
000001c0: fa2d ce3d 26d7 85bd 044d eebd 6ec8 f63d
000001d0: 54c3 ec3b f436 a33d b7f7 f53c 4013 543e
000001e0: a735 673d 9761 4ebd 9672 adbd 94ee f5bd
000001f0: c14a c3bd 31dd f3bd e4d4 07be 5cdb 25bd
00000200: bde0 4ebd 26b0 643a c674 0d3e 4f88 9fbc
00000210: d8ad 013d b079 f8bd d181 983a c866 b2b9
00000220: 0226 97bd 5c35 ddbc b090 79bd c1e7 b23c
00000230: 48dc 663d f385 0dbe 6a9c c8bc 593e 5abc
00000240: d885 783c 0bb8 03be 87ae 78bd da9a e13d
00000250: 1358 ad3d 725f 2ebc b46b cb3d 8914 553c
00000260: ecd3 f2bd 6918 87bd 01e6 19bd a98f 173e
00000270: 8995 323e e5aa 01be a418 093e 189c 28be
00000280: 3d46 ce3d 2f04 dd3d 7142 de3d 03eb 003e
00000290: 71b4 86bd a588 38bc 33cf a73d fddc 263c
000002a0: 0cff fbbc 08d4 8c3d 2578 113d 8075 303d
000002b0: af9b 55bc 6698 863d c849 c23d 0538 84bd
000002c0: 963c fcbd 7654 983c 258e 2b3b ebfb c0bd
000002d0: 5e14 4d3d 0a4d 443d 07ed d03d 701d cf3b
000002e0: 996b 18bd d802 bcbd fbc6 d0bd fac3 173e
000002f0: b2d0 75bd f07a 1e3e dd31 7ebd 72d4 aabd
00000300: 84e7 393d 57ac 303e 4f2a 81bd 5486 c6bb
00000310: 535c 2d3d 42c4 e4bd bef9 9b3c 9a56 bcbc
00000320: 9f70 813d abd7 3a3c c493 06be e2cf 00be
00000330: 049d a5bd fae5 7c3d 156a c73d 2768 1bbd
00000340: c36b a1bd dd94 85bd e015 cc3d f7fa ad3d
00000350: 149d 8ebc 5f40 ecbc 04d0 de3b 28eb 093d
00000360: 05ed 2bbe 575e b9bc 9d5e 2e3d c5ef dfbd
00000370: d0ce 27bd 5755 46bd a72e 21bd 2193 cebb
00000380: fedd 61bd 0b84 91bd 557f 9bbd a64d e03d
00000390: 9e3b 423c 2a56 93bc f045 113e e332 c2bd
000003a0: 6611 f03c 14d6 1dbe 9fbe 34bd b4f0 b8bc
000003b0: 45ff 0abd ec14 5d3d c39d 5fbd edeb 383d
000003c0: ca20 083d 418a bd3d 6fd1 f43d 91b1 7f3e
000003d0: ef9d 0a3d f23b 4f3b b14b 27bd f1dd 92bd
000003e0: 249b 87bd 0731 77bd 3f2d 09bd 2e59 393c
000003f0: 52ea da3c ff49 12be 4d42 85bb c865 113e

fc2.bias f4 [64]
0.15713738 0.15526532 0.031919226 0.13490786 0.10770298 0.02134456 0.1435761 0.21552621
0.11962465 0.2100153 0.18299729 0.026119558 0.20126191 0.02880402 0.21686907 0.22926235
0.020515334 -0.043124363 0.11097292 0.056463983 0.25568378 0.02736242 -0.044584196 0.09450383
0.2298536 0.11637606 0.077747755 0.13699174 0.20920493 0.32219175 0.12631269 0.15704852
0.21644476 0.04732028 0.029853065 0.252185 0.111136965 0.0548311 -0.018417003 -0.0065705315
0.20489478 0.20919374 0.34059718 0.036830384 0.04039932 0.114909075 0.09676829 0.06183216
0.013489247 0.3252293 0.2142684 0.06399634 0.10458846 0.34981596 -0.052814182 0.09342177
0.13200042 0.07171621 0.17939511 0.19853671 0.042641226 0.09140295 -0.040040538 0.036870304
00000000: 9fe8 203e dffd 1e3e bcbd 023d 4925 0a3e
00000010: 6193 dc3d c9da ae3c 9d05 133e e7b2 5c3e
00000020: c5fd f43d 400e 573e a463 3b3e aff8 d53c
00000030: 9a17 4e3e 68f6 eb3c ed12 5e3e c0c3 6a3e
00000040: c60f a83c 2ca3 30bd c545 e33d c746 673d
00000050: fce8 823e 2727 e03c eb9d 36bd 398b c13d
00000060: be5e 6b3e 9256 ee3d 373a 9f3d 9047 0c3e
00000070: d139 563e 51f6 a43e 1d58 013e 54d1 203e
00000080: b2a3 5d3e e9d2 413d 6a8e f43c 641e 813e
00000090: c79b e33d 9396 603d 41df 96bc 9d4d d7bb
000000a0: f0cf 513e e236 563e c162 ae3e 75db 163d
000000b0: c279 253d 7355 eb3d 742e c63d b843 7d3d
000000c0: 0102 5d3c 7484 a63e 2d69 5b3e 8310 833d
000000d0: 7932 d63d 141b b33e af53 58bd ea53 bf3d
000000e0: 1e2b 073e f3df 923d 5ab3 373e 354d 4b3e
000000f0: 91a8 2e3d 7831 bb3d 8c01 24bd 5105 173d

fc3.weight f4 [10, 64]
-0.049828857 0.06466072 -0.21102054 -0.12692556 0.26914537 0.10999188 -0.05904014 -0.083518595
0.33748767 0.31325647 0.3164529 0.08519181 -0.33009604 0.0086781345 0.24271826 -0.055071294
0.44166264 -0.071934655 -0.28495368 -0.29571292 -0.07628831 -0.12678017 0.071051866 -0.09248608
0.31432387 0.22591218 0.3649262 0.33643192 -0.16788185 -0.4429781 -0.13381222 0.20399159
0.35632312 0.25302726 -0.101706624 0.4020724 0.31309378 -0.00511328 0.17914072 -0.223543
0.20214203 0.29920095 0.36429214 -0.12674575 -0.003086754 0.27751663 0.36910614 0.39017165
-0.12337244 -0.2971095 0.004868541 0.26214328 0.10441015 -0.41078794 0.057313845 0.3334685
-0.2580103 0.30805418 0.26018625 0.27540413 -0.21838784 -0.026217027 0.2546682 0.30950627
0.08838235 0.33491886 0.35028926 -0.13966922 0.051644802 0.043989256 -0.1619614 -0.13156895
-0.16967554 -0.24978934 0.36978215 -0.024521843 -0.030796666 0.37404448 0.21261647 -0.2791391
-0.19368242 0.29420796 -0.034797464 0.36175916 -0.41168323 -0.09500408 0.3241315 0.02122919
-0.31865725 0.09142249 0.21124835 0.3667796 -0.23146854 -0.09828035 -0.2348417 -0.33609948
-0.2979293 0.33829847 0.0057716067 -0.24368733 0.327769 -0.16053346 0.2624776 0.4051745
0.14031282 0.017793253 -0.3704079 0.47240964 -0.19376825 -0.059205003 -0.1317929 -0.052747514
0.2536315 0.34486437 0.24312192 0.22026101 0.2571891 -0.05707598 -0.057032295 0.31683847
0.2578462 0.26240253 0.23489325 0.24168326 0.1972807 -0.12350192 0.2114221 0.32373688
0.070768684 -0.1971281 0.020769363 -0.061822254 0.27342257 -0.16495161 0.5634363 -0.20999035
-0.024382198 0.3382358 0.19679998 -0.14124236 0.34415725 -0.20620163 -0.26303104 0.324448
0.47798505 0.07265219 -0.058936257 -0.22334765 -0.08808519 0.003003828 -0.027540829 0.20519805
-0.14168532 -0.34538835 0.103252776 -0.08038849 -0.28303525 0.3203011 0.18597865 0.032290287
0.33504993 -0.115512006 0.034468193 0.4082135 -0.0915682 0.28954268 0.22590889 0.15755664
-0.14003204 0.38834885 0.38037387 0.27728307 0.17640656 -0.15665098 0.41138208 0.3780166
0.08658614 0.31516972 0.12613972 -0.1833413 0.27411753 0.33105153 -0.14364472 0.11468756
-0.022877166 0.08123591 0.27292883 -0.13168934 -0.059047762 -0.14252906 0.2278368 0.22862291
0.2102973 0.30174264 0.19968043 0.3586942 0.2470896 0.11225492 -0.03392698 0.23522629
0.3467862 0.0375605 -0.15628052 -0.09726372 0.2817741 -0.115695246 -0.22239308 0.2983664
0.11050976 -0.092040725 0.01506009 0.26617697 0.029646572 -0.29858318 0.26525486 0.33186004
-0.09658376 0.22942837 -0.14005347 -0.16480915 0.2899374 0.24934869 0.26608783 0.22549549
0.33173433 -0.18964963 -0.06874857 -0.0019676548 0.24966928 -0.4049164 0.2141614 -0.1831346
0.31441933 0.18768957 0.37306723 -0.013607276 0.19482633 -0.03145543 -0.24334358 0.31436363
0.25573587 0.31572723 -0.11766144 -0.1780703 -0.20074607 0.30524033 0.01538127 -0.013022421
0.24262463 -0.20952016 0.10110475 -0.023461087 -0.07468222 0.0064965766 0.14218412 0.0034657186
00000000: 5819 4cbd d76c 843d c515 58be c6f8 01be
00000010: 6ccd 893e 6c43 e13d 13d4 71bd cc0b abbd
00000020: 2fcb ac3e 2763 a03e 1d06 a23e 0b79 ae3d
00000030: 5902 a9be bc2e 0e3c 238b 783e 7092 61bd
00000040: 9b21 e23e 7a52 93bd 73e5 91be af67 97be
00000050: 0c3d 9cbd a9d2 01be a483 913d 5869 bdbd
00000060: 0fef a03e 8655 673e 9bd7 ba3e ce40 ac3e
00000070: 38e9 2bbe 07ce e2be 1206 09be 2ce3 503e
00000080: fc6f b63e ca8c 813e 904b d0bd 6fdc cd3e
00000090: d44d a03e 4d8d a7bb aa70 373e 75e8 64be
000000a0: 52fe 4e3e de30 993e 8084 ba3e a3c9 01be
000000b0: 234b 4abb a916 8e3e 7bfb bc3e 94c4 c73e
000000c0: b1aa fcbd bd1e 98be 4888 9f3b a537 863e
000000d0: fdd4 d53d cc52 d2be ecc1 6a3d 62bc aa3e
000000e0: ed19 84be 47b9 9d3e 2237 853e c501 8d3e
000000f0: 10a1 5fbe 17c5 d6bc df63 823e 9b77 9e3e
00000100: ce01 b53d 7c7a ab3e 1d59 b33e 7305 0fbe
00000110: 8089 533d 142e 343d 36d9 25be 03ba 06be
00000120: 6dbf 2dbe c7c8 7fbe 1654 bd3e 08e2 c8bc
00000130: 4a49 fcbc c282 bf3e 22b8 593e 52eb 8ebe
00000140: af54 46be 6da2 963e c987 0ebd 7f38 b93e
00000150: 25c8 d2be 8091 c2bd 90f4 a53e d7e8 ad3c
00000160: 0b27 a3be b73b bb3d 7d51 583e 89ca bb3e
00000170: 1706 6dbe 3547 c9bd 587a 70be 3b15 acbe
00000180: 308a 98be 7535 ad3e bf1f bd3b 2c89 79be
00000190: 57d1 a73e e262 24be 7763 863e 0873 cf3e
000001a0: 2aae 0f3e 28c3 913c 1ba6 bdbe addf f13e
000001b0: 2f6b 46be f280 72bd b8f4 06be c70d 58bd
000001c0: fddb 813e 1092 b03e f4f4 783e 1a8c 613e
000001d0: 4aae 833e 81c8 69bd b29a 69bd a738 a23e
000001e0: 6b04 843e a059 863e db87 703e d17b 773e
000001f0: f403 4a3e 93ee fcbd 097f 583e d7c0 a53e
00000200: 2cef 903d f3db 49be 8324 aa3c 5539 7dbd
00000210: 0bfe 8b3e 13e9 28be 5d3d 103f b607 57be
00000220: 2dbd c7bc 3e2d ad3e ef85 493e d6a1 10be
00000230: 6135 b03e 8526 53be 01ac 86be 0c1e a63e
00000240: 75ba f43e acca 943d 2567 71bd 3fb5 64be
00000250: 0266 b4bd dfdb 443b 4e9d e1bc 701f 523e
00000260: f515 11be bed6 b0be 3176 d33d b8a2 a4bd
00000270: ffe9 90be 81fe a33e 3071 3e3e d242 043d
00000280: aa8b ab3e 8f91 ecbd 852e 0d3d 5c01 d13e
00000290: 1c88 bbbd f03e 943e a954 673e 8756 213e
000002a0: 8f64 0fbe a9d5 c63e 5dc0 c23e 0cf8 8d3e
000002b0: eca3 343e 1d69 20be aca0 d23e 648b c13e
000002c0: 1354 b13d ed5d a13e c52a 013e d2bd 3bbe
000002d0: 2259 8c3e 967f a93e 9a17 13be 50e1 ea3d
000002e0: e568 bbbc 035f a63d 54bd 8b3e 92d9 06be
000002f0: 11dc 71bd 23f3 11be 0d4e 693e 201c 6a3e
00000300: 2d58 573e 037e 9a3e 0779 4c3e c4a6 b73e
00000310: 0e05 7d3e e8e5 e53d 04f7 0abd 29df 703e
00000320: f68d b13e 0ad9 193d 0008 20be 3432 c7bd
00000330: b244 903e a1f1 ecbd 03bb 63be 7bc3 983e
00000340: f152 e23d d97f bcbd 99be 763c 5948 883e
00000350: 5edd f23c e5df 98be 7ccf 873e 8fe9 a93e
00000360: b5cd c5bd 45ef 6a3e 2d6a 0fbe bbc3 28be
00000370: ad72 943e 4355 7f3e aa3c 883e 4ae8 663e
00000380: 15d9 a93e 8333 42be 0dcc 8cbd c5f3 00bb
00000390: 4ea9 7f3e 3451 cfbe 204d 5b3e a387 3bbe
000003a0: 92fb a03e b231 403e ab02 bf3e 0df1 5ebc
000003b0: 8e80 473e 69d7 00bd 0f2f 79be 45f4 a03e
000003c0: d0ef 823e 00a7 a13e 7bf8 f0bd 1058 36be
000003d0: 6190 4dbe 7648 9c3e b901 7c3c fe5b 55bc
000003e0: 9772 783e 748c 56be 0210 cf3d 7731 c0bc
000003f0: fef2 98bd 3ce1 d43b b798 113e 1c21 633b

fc3.bias f4 [10]
0.036025785 -0.28098664 0.28852656 0.5018369 0.65781623 -0.048813183 0.26664183 0.18921043
0.45820245 0.03679387
00000000: c68f 133d 7bdd 8fbe c1b9 933e 6278 003f
00000010: a566 283f 55f0 47bd 4785 883e 61c0 413e
00000020: 8399 ea3e 2bb5 163d
